NLP/final_chatbot.pth (torch, 238105 bytes, 4 tensors)

fc1.weight f4 [512, 100]
00000000: 7b3c 2ebd 1d7f 37bd 8c22 543e 1159 83bd
00000010: ff76 243e 8a95 093e ac49 1bbe 9354 59bd
00000020: a881 e63a 4cf5 ec3d 764c 073e 610c 88bd
00000030: 6130 61bc 8dc2 84bd bd2d 033e 5780 45bd
00000040: 1426 293e bec1 663e 1ccc 343e e29a 6bbd
00000050: ef58 593d 1452 143c 83f9 10be 16d2 25be
00000060: ffd1 593d 6bca 45be f5a2 1c3e f831 e8bc
00000070: 2b2f 313e ef60 69be 6c99 aabd 3d08 803d
00000080: 94dd e0bc b7e1 c23c 5aff c63d 09b1 123e
00000090: 169e 653e d048 653e dc3a 85bb 2f6d 2b3e
000000a0: f36a 36bd 4464 1abe 93bf f13d bdd8 b13d
000000b0: 017f 0dbb bd37 403d cd23 b1bb ab34 34bd
000000c0: 674f 69bd 4fe8 103d d3a6 37be 777f 893d
000000d0: c2cc c3bd 4a9a 5c3e 1bdc 623b afb8 2ebe
000000e0: 181a e2b9 40e4 b23d 5b12 b43d 30a7 563d
000000f0: 84cf 373c 1e1f e4bd 6be2 503e a611 c3bc
00000100: b1e4 28bd ba6c 56bd 81af 19be f614 e4bd
00000110: 8f6b 0dbc bfbe 853e 95fa dbbc 4f40 d4bd
00000120: 10b7 983c 0def 88bd 5036 b43c cc23 94be
00000130: aac8 c3bd 145f 123e c329 cbbc 620b 363d
00000140: f893 75be 80c8 d13d 508c f83d 9e95 813d
00000150: f9c2 5bbe 433d bdbc 291e 203e a70c e03d
00000160: 85fc 143e 83b8 88bd 7550 003e 3364 753e
00000170: 39f9 fdbd e93a 033e 3891 963b 2f0b d8bd
00000180: 1071 16bc 3f55 f23d 38a1 623c 1e53 943d
00000190: 1fc3 48bd f97e c43b 771b 8b3b 19e9 b23d
000001a0: edde fbbc 6ee5 85be 7ae1 723d 8b8a e3bd
000001b0: 53bd ef3d 0208 fabd e184 21be 65ec 853c
000001c0: b5a1 6c3e 8495 533d 2b38 9f3d 60c8 393e
000001d0: 8e06 6f3d b1bf b3bd 85f6 3c3e b08b 073e
000001e0: 2b8c 103d 1c1a 2c3d 4a56 0f3d 64e3 4bbe
000001f0: b0b9 1abe 2d0d f93d 3d99 193e b636 61bc
00000200: 1508 39be 0643 b2bd 889e a6bd a1e6 813e
00000210: 2898 46bd f578 19be 664a aebd 729a 3abe
00000220: 440f 2d3e 4153 5abe a2b0 d3bd e850 5abe
00000230: 0106 95bd 43b2 79bd 254f 5abe 0609 34be
00000240: 9de3 513d 2ece 883d 75a2 7f3c e636 dd3d
00000250: 3da7 6f3d e5f6 3dbd cefc d0bd c0b0 403e
00000260: 6ea5 ee3d 83d9 c8bd f24b 9ebd ca15 4f3e
00000270: aeeb 6abc 3f96 80be 4b28 9dbd 95db f2bb
00000280: 0d85 1a3d 5f0a 1b3e 06e7 143c 60c5 46be
00000290: 5497 c23c 73b4 c0bd ae1b dd3c 8bb5 25bc
000002a0: 5be0 363e f9fe 13be 82f3 753d bc5c 7a3e
000002b0: 37f8 d2bd 8029 ec3b 5718 1d3e 7f94 79be
000002c0: 0503 59be 00d6 75be 1003 91bc 2428 3a3e
000002d0: d311 b2bd 3d72 31be 3421 ec3d 4236 223d
000002e0: 8d68 42be 2a7f 2cbe 3dae 50be f62a e4bd
000002f0: 34bd a5bd b3e2 263e 0462 9b3c 8957 59be
00000300: c241 3a3c c719 413e fd55 983d 93f7 153c
00000310: 3241 e0bc b724 d1bc e595 c4bd 5212 0d3d
00000320: 408f d9bd b5c7 e53d 6d32 c23d 231e 41be
00000330: 6044 35bd ea5a 633e 3428 ad3c fb42 b9bd
00000340: 80c7 333c 1665 9b3d d13b 503d 9c39 25be
00000350: 1a8e d5bd 74d9 aabd fef3 febc 81b6 ef3d
00000360: 4dac 89bd 6c69 98be 20b2 bdbc a2dd 5cbe
00000370: dfac 913d 34ef 643d b51a 20be addb 4ebd
00000380: f57c b53d 9b99 dabd eb6e 53bd 4220 073d
00000390: d961 613e a2cd 97be 80fb fe3d 1e9c e43d
000003a0: 51d1 91bd d063 903d a03f 253e a24a efbb
000003b0: 09a5 53bd 884b b8bd 1b7b 983d 8e5b 53bd
000003c0: 07f5 443d e6d7 503d 7862 b2bd e04c 53bd
000003d0: 4961 99bc 1084 a13d 5f81 29be 79db 783c
000003e0: 018f d8bc 2e69 47bd e81a 1f3d da04 4ebd
000003f0: 19d0 b03a 57a8 cc3d 80a3 9d3d 7f86 b43d
-0.042538147 -0.04479896 0.20716304 -0.064134724 0.16061018 0.13435951 -0.15164822 -0.053059172
0.0017586248 0.11570224 0.13212761 -0.06642986 -0.013744445 -0.0648242 0.12810417 -0.048218098
0.16518432 0.22534844 0.17655987 -0.057520755 0.05306333 0.009052772 -0.14157681 -0.16193423
0.053178784 -0.19315498 0.15296538 -0.02834414 0.1730315 -0.22790883 -0.08330044 0.06251571
-0.027449407 0.02378927 0.09716673 0.14325346 0.22423586 0.22391057 -0.0040658545 0.16740869
-0.04453559 -0.15077311 0.11804118 0.08683918 -0.0021590593 0.046928156 -0.005405879 -0.04399554
-0.05696049 0.035377797 -0.17934732 0.06713765 -0.09560539 0.21543232 0.0034616056 -0.17062639
-0.0004312552 0.087349415 0.087925635 0.052405536 0.011218909 -0.11138748 0.20398872 -0.023812126
-0.041233722 -0.052349783 -0.15008356 -0.111368105 -0.008631601 0.2612209 -0.026852885 -0.103638284
0.018641979 -0.0668622 0.021998554 -0.2893356 -0.09559758 0.14294082 -0.024800187 0.04444445
-0.23982227 0.102433205 0.121361375 0.06327365 -0.21461095 -0.0231005 0.15636505 0.10939913
0.14549454 -0.06675818 0.12530692 0.23964004 -0.12401051 0.12815441 0.004594948 -0.10549008
-0.00918223 0.11832666 0.013832383 0.07242416 -0.049014207 0.0059965816 0.0042452174 0.08735866
-0.030745948 -0.26151603 0.059297062 -0.11110409 0.117060326 -0.122085586 -0.15773346 0.016348073
0.23108561 0.05165626 0.07774385 0.18142843 0.05835586 -0.087767966 0.18453415 0.1323688
0.035289925 0.042017087 0.0349944 -0.19910961 -0.15109897 0.12160716 0.14999862 -0.013745954
-0.1806949 -0.0870419 -0.08135706 0.25371268 -0.04848495 -0.14987548 -0.08510284 -0.18222979
0.16900355 -0.21320821 -0.103364244 -0.21319926 -0.07276536 -0.06096102 -0.21319254 -0.17581567
0.05124246 0.06679951 0.015602698 0.10801487 0.0585091 -0.046378035 -0.10204469 0.18817425
0.11652647 -0.09807112 -0.07729329 0.20223156 -0.014338417 -0.2511463 -0.07673701 -0.00741143
0.037724543 0.15140675 0.009088283 -0.1941123 0.0237538 -0.09409418 0.026990738 -0.010114084
0.17859022 -0.14452733 0.06004668 0.24449438 -0.103012495 0.0072070956 0.15341316 -0.24373053
-0.21192558 -0.24007416 -0.017701656 0.18179375 -0.08694806 -0.17328735 0.115297705 0.039602526
-0.18985195 -0.16845384 -0.20378967 -0.11141007 -0.08092728 0.16297416 0.018967636 -0.21224798
0.011368217 0.1885749 0.07438276 0.009153265 -0.027374838 -0.025530202 -0.095989026 0.0344413
-0.10623026 0.11219732 0.09482274 -0.18859152 -0.04425466 0.2220265 0.021137334 -0.09045979
0.0109728575 0.0758764 0.050838295 -0.16135257 -0.10427494 -0.08342257 -0.031122204 0.11704732
-0.06722317 -0.2976793 -0.023156226 -0.21568921 0.07113051 0.055892184 -0.15635188 -0.050502468
0.08861724 -0.10673829 -0.05161945 0.032989748 0.22009982 -0.29649073 0.124503136 0.111625895
-0.07120002 0.07050288 0.16137552 -0.007302598 -0.05167106 -0.089987814 0.074453555 -0.051600985
0.04808524 0.050987147 -0.08710188 -0.051586986 -0.018723147 0.07886517 -0.16553257 0.015189045
-0.026435377 -0.04868429 0.03884402 -0.050297596 0.0013489752 0.09993046 0.07697201 0.088147156

fc1.bias f4 [512]
00000000: c6fc 6d3e ad4e 5a3e 3a29 533d 0e80 263e
00000010: 2261 683d ee86 263d 59e0 6b3e dc53 523e
00000020: 366c 843d d897 733e 6f8e f03d 0479 9e3d
00000030: 310d 323e 5e6b 8f3d 5b31 423e 4a6c a73d
00000040: 78cd af3d 1b3b c83c 41a8 233e 2a52 773e
00000050: 7181 723d 68dd 423e ebae 3d3e 2ddb 063e
00000060: 69ea 0e3e 1567 3c3d 7166 e33d 5d4e 943d
00000070: 030a b63e fa5e a43c 0e5c e63d 9da0 193e
00000080: 0a9a 473e 41c1 1b3e e3a7 633e b0f8 d03d
00000090: f205 c53d bdfd 783e 82de e43d 0d2e cd3d
000000a0: 8887 693e a861 003e 4fb1 3c3e 70b2 4f3d
000000b0: 4f17 bd3d 0fda c63d bb17 d33d 5772 293e
000000c0: 01c2 2c3e 4204 4b3e 7c54 073d 2d96 583e
000000d0: fdf4 0f3e ac90 083e 905b 483e 53a3 6a3e
000000e0: ed72 5f3d 7127 6c3e 2579 863c d473 133d
000000f0: 0abf 923d 3b60 173e effe 613e 5671 133e
00000100: 4bd6 383e 53cb 293e 6d70 a13d 68af a93d
00000110: 08e0 203e f2ea 3e3e dbef 893d 7cd1 453e
00000120: d083 073e fa49 183e ef72 443e bd86 533e
00000130: fab0 893d 4875 283e bf23 d43d 70d0 e43d
00000140: 6481 da3d cba2 a63d fd49 2c3e 606c d23d
00000150: ca43 373d 577f 3a3d 8cd8 153e 4b71 0e3e
00000160: 3aab 193e 0b3e 093e 87f9 523d 7375 923d
00000170: 46ca bc3d 49a1 5b3e 7507 0b3e 43a9 213e
00000180: 149d 9a3d 2666 4f3e ddc5 403e ed7f 8e3d
00000190: 786c 523e c039 df3d aaad 033e 7391 0a3d
000001a0: 8714 013d 41ac 813d f36c 023e e28c 1f3e
000001b0: 3b90 f73d cd53 313e 86a8 1d3e 823c 033d
000001c0: 9223 633d 6588 a03d e1aa 813c 0025 323e
000001d0: 416b 2b3d d26f f43d 24ac aa3d 7bd1 fb3d
000001e0: f893 2d3e b5c6 553e e4d4 f73d ab95 173e
000001f0: 0934 5c3e 58de dc3d 256e 0e3e 2365 4d3d
00000200: 4d87 e63d ea1c 293e a627 d83d a6d4 aa3d
00000210: 81eb a83d 1a93 073e 2605 473e b0b3 ff3d
00000220: 86cd 223e 2f52 733e 7dc5 183e 89e1 d03d
00000230: d562 2c3e 7f2a 193e 6fed 613e 07eb b43c
00000240: ed04 ce3d de0b 4f3e e3b1 273e 34d6 b73c
00000250: 1ff5 ca3d 942b 793d f806 0e3e a07b 5a3e
00000260: 9086 e53c ec53 ed3d ab39 613e 8cd6 0d3e
00000270: d3b6 2b3e 8a28 573e d7dc e23d 8b8b 733e
00000280: 298e 083e 1765 7b3d ce80 3c3e 4b1a de3d
00000290: 78c0 213d 5397 e83d ae0f 173e 33dd 043e
000002a0: f9f8 823e 223a 743d d01b 143e 552b 203e
000002b0: f9eb 973d 8e3e 273e 7917 363e dde7 4b3e
000002c0: 6dce ba3d 2808 433e fcb5 273e ba94 703e
000002d0: 475c e63d 2528 aa3d 88c8 363e 2673 583e
000002e0: f403 1c3e 9ab7 323e 6875 893d 07d7 413e
000002f0: 1d79 3a3e f577 333e 9212 d13d a54f 0a3e
00000300: 7f8c 0e3e fee2 3c3e 9023 1b3e 05c7 403e
00000310: c6ae 233e d18f 3a3e 853e 4e3e da6d de3d
00000320: 55b9 f53d 6c92 8b3d c250 843d 2582 573e
00000330: 88ef 0c3e afc3 6d3c 0f42 3a3e fef7 0e3e
00000340: 4cd4 a53d 6561 573e 1533 833d 148b 083e
00000350: fc7d 623e f134 3e3d a731 6f3e 9857 353e
00000360: 87c0 7d3d 0896 6e3e cd25 293e 13d5 e23d
00000370: 69d2 fc3d 3dcb f23c 7d99 c03d f490 913d
00000380: c394 d23d 00ae c73d 57a8 7c3e 5e87 7b3e
00000390: 10a3 d13d e533 2e3e 0301 183e cc9d 963d
000003a0: 36c4 633e 76d3 d63d abca 173e d3e7 b53d
000003b0: cfa8 ff3d 2818 1a3e 8536 b33d 4804 833d
000003c0: bde3 2d3e acad 153e a927 043d 8490 193e
000003d0: 947c 083e 901a 493e 4e74 1c3e 0681 243e
000003e0: 0195 5b3e 6f88 6b3e 0736 243e 5b68 d33d
000003f0: 3a97 a83d 3f50 c53d cdd2 3a3e 169d df3d
0.23240957 0.21319075 0.05155299 0.16259786 0.056733258 0.040656023 0.230348 0.20539802
0.06465952 0.23788393 0.11745917 0.07737926 0.17387845 0.070029005 0.1896414 0.081749514
0.08584112 0.024442246 0.15982153 0.24152437 0.059205476 0.19029772 0.18523757 0.13169546
0.13956608 0.045996744 0.111035235 0.07241509 0.35554513 0.02006482 0.11248027 0.15002675
0.19492355 0.1521044 0.22232012 0.102036834 0.096202746 0.24315543 0.111752525 0.10018549
0.22805607 0.12537253 0.18427013 0.05070728 0.092329614 0.0970956 0.103072606 0.16547523
0.16870882 0.19825843 0.033039555 0.21151038 0.140583 0.13336438 0.19566178 0.22913866
0.05455296 0.2306192 0.016415188 0.035999134 0.07165344 0.14782803 0.22069906 0.14398703
0.18050496 0.16581468 0.07882772 0.08285409 0.15710461 0.18644312 0.06735202 0.19318193
0.13233876 0.1487197 0.19184469 0.20656867 0.06723209 0.16450989 0.103583805 0.11172569
0.106692106 0.08136519 0.168251 0.10274577 0.044742383 0.045531597 0.14633387 0.13910405
0.15006724 0.13402574 0.0515075 0.07151308 0.09218268 0.21448244 0.13577063 0.15787224
0.075494915 0.2025381 0.18825479 0.06957994 0.2054919 0.10899687 0.12859216 0.033830117
0.031513717 0.06331683 0.12736873 0.15581086 0.12088057 0.17317124 0.15396318 0.032040127
0.055453844 0.07838515 0.015828552 0.17396927 0.041850332 0.119353905 0.083336145 0.122958146
0.16950977 0.20876582 0.121011525 0.14803188 0.21504225 0.10784596 0.13909204 0.05014528
0.11256275 0.16514936 0.10554437 0.08341341 0.08248044 0.13239709 0.19435558 0.124854445
0.15898713 0.2376182 0.14919086 0.101992674 0.16834576 0.14957617 0.2206323 0.022084726
0.10059533 0.2021937 0.16376452 0.022441007 0.099100344 0.060832575 0.13869846 0.21336222
0.028018266 0.115882725 0.21994655 0.13851374 0.1676896 0.21011558 0.11077278 0.237837
0.1333548 0.061375704 0.1840851 0.10844859 0.039490193 0.11356988 0.14752075 0.12975006
0.25580576 0.059625752 0.14463735 0.1564153 0.07418055 0.16332456 0.17782392 0.19912668
0.09121404 0.1904608 0.16378015 0.23494235 0.11248069 0.08308438 0.17849934 0.21137676
0.15235883 0.17452851 0.067118466 0.18929683 0.18210264 0.17526229 0.1020862 0.13506944
0.13920783 0.18445966 0.15150285 0.1882592 0.1598464 0.18218924 0.20141037 0.10860796
0.1199824 0.06815037 0.06460716 0.2104574 0.13763249 0.014511987 0.18189262 0.13961789
0.08097133 0.21033247 0.064062275 0.13334304 0.22118372 0.046437208 0.23358785 0.17709196
0.061951187 0.2329942 0.16518326 0.11075797 0.1234482 0.029637927 0.094042756 0.07107726
0.1028228 0.09749985 0.24673592 0.24563357 0.1023618 0.17011984 0.14844136 0.07354316
0.22242817 0.10489552 0.14823405 0.088821076 0.124833696 0.15048277 0.08750633 0.06397301
0.16981407 0.14617032 0.032264385 0.14996535 0.13328773 0.19639039 0.15278742 0.16064844
0.21443559 0.23001264 0.16036235 0.103226386 0.08231969 0.09634446 0.18244477 0.10918634

fc2.weight f4 [14, 512]
00000000: e0e7 173e edd7 cabd 34fb 60be 6759 9fbd
00000010: 052c be3d 1bd9 ba3d 004e 2dbe fa27 25be
00000020: 792c 9bbd 87a5 2dbe 7fe8 52be c7c0 b13d
00000030: 8fd4 95b9 b9c2 27be 5a42 4fbe 8986 373e
00000040: 5676 313e d197 eb3d a5a8 113e 4d84 0fbe
00000050: dc5b 16be a726 3b3e 8a43 3fbe 7ad2 18be
00000060: 61bc 12be be57 0e3e f045 18be 1f04 013e
00000070: c498 3cbf 9d34 45be f3b1 93be b857 1c3e
00000080: 3bfb 13be aae6 a83d eaf2 2d3d 7755 05be
00000090: 7c80 5fbe 366a 82bd c032 10bd ba8a 50be
000000a0: 0a56 41bd 7f95 1cbe b238 953d 8a6c b23d
000000b0: 52ee 37be f6d1 d63d e8bf 8ebe 1fb5 06be
000000c0: 32c7 15be d558 e63c 1d63 a13d 82de 34be
000000d0: e648 903d 57d5 1c3e 40ac 853a 138d 173e
000000e0: f9ac 2ebe 52d1 9c3d 6c6e 133e eef5 27be
000000f0: 3ecf 44be 4a35 24be 6d7f 3e3e ff93 0a3e
00000100: a93f d9bd 8eda 8f3d 3ec0 37be 8629 4ebe
00000110: d7da b13d 038e e53d 8547 4dbe c274 28be
00000120: 6558 6dbe 87ce 19be d241 3abe be28 813d
00000130: bff1 103e 3a9e 0fbe 2fbf 41be 3ad5 40be
00000140: 18b3 123e 6638 0ebe 231c 10be 1486 4bbe
00000150: c947 68be e3a4 f63d 9330 59be 0aaf bd3d
00000160: ec6f cf3d 7316 44be 74da cd3d 3cd5 a73d
00000170: 6ea2 e6bd 07cb e4bd f316 303e 9fcc 23be
00000180: 553b c33c 716b a53d de24 aa3d 9ae4 7cbe
00000190: 9a73 703d a061 773b 7739 9e3c c7da ffbd
000001a0: e881 21be 0fff 02be 193d f4bd d8d0 3bbe
000001b0: 9dcf a8bd 71b4 f1bd 6afa 6e3d 9775 05be
000001c0: 64fe 14be 6342 03be 5779 d13d 8478 08be
000001d0: f10f a6bd 5571 0a3e be58 af3d b1ed 2ebe
000001e0: ab63 3bbe 0bf5 ff3d cfae 19be 8d9c ff3d
000001f0: bef2 0ebe 48e4 32be e823 a13d 0c05 0ebe
00000200: 53e6 2dbe c160 133e 6fb2 4cbe b36c cf3d
00000210: aede 2c3e c74a 21be 8f31 f03d 3ade 4bbe
00000220: 268d a4bb 1095 10be 0c36 52be 6308 0f3e
00000230: 0e28 0bbe 8e3a 5abe 2536 433e 18b4 213e
00000240: 325c 073e 5c08 363e 8233 e83d 952d 003e
00000250: 7da7 1fbe 6021 35be 4ddd 1dbe 0368 20be
00000260: e81d af3d f3f4 3abe d2a1 19be 3ac7 1c3e
00000270: 3a91 8f3d 17b8 f13c d9a9 6cbd 55ac 0c3e
00000280: e55b f63d 32a8 44be 181f 4fbe 3c7d eabd
00000290: 35b0 123e 7ee2 053e df1f 29be dec7 45be
000002a0: 6e28 04be ca25 28be ef74 0cbe 4eba 243e
000002b0: f840 c4bd d154 043e cdb0 89be 5151 373e
000002c0: 5b61 ec3d 6dee 43be 10b7 e53d d696 0bbe
000002d0: 543f 223e 389c 35be 4a41 22be f939 e13d
000002e0: f320 07be deb4 123d 7abf 143e 5a25 19be
000002f0: 8530 ca3d 2eba 36be 96b1 1a3d c9e8 2abe
00000300: cd18 e7bd 9f90 2ebe efdb 3cbc be74 173e
00000310: 585a 1ebe 53c8 213e d580 abbd cb48 293e
00000320: b4ab 1e3e 26bc 45be 81ca 1fbe 8f67 26be
00000330: bc45 3dbe c77d 0f3e 3d7f 05be eba6 d9bc
00000340: fff1 323e f62b 923d 2455 253e 2e52 b13d
00000350: ab42 383e 7626 afbd a0bf e33d 9cae f5bd
00000360: b66c 113e 0eff 133e 5b42 0f3e 1730 f53d
00000370: 1284 20be f9ec e33c 1d2e 0c3e 1c5b 2abe
00000380: e25a 013e 25ee a6bd fc63 0b3e 89ec 05be
00000390: 7dc6 733e 6f75 7abe cb97 9dbd 6990 20be
000003a0: 9986 a43d 9bf9 1e3e ee60 0ebe a14a f2bd
000003b0: 490c 0ebe 86b0 40be 115f 52be 9df6 2a3e
000003c0: 8b9d 0cbe a2fa 24be 775c b8bd a832 e7bd
000003d0: c55e 58be d966 653e 28cc 3dbe 15ec b63d
000003e0: e5c6 a03d fa3f adbd 8b05 183e a4fe e93d
000003f0: ed32 163e ceb6 39be c117 0ebe bb12 583c
0.14834547 -0.09904466 -0.21970826 -0.07780724 0.0928574 0.09123441 -0.16924286 -0.16128531
-0.07576842 -0.16957675 -0.20596503 0.086793475 -0.00028577863 -0.16382875 -0.20240155 0.17922415
0.17330298 0.11503566 0.14224489 -0.14015312 -0.14683479 0.18276463 -0.18678108 -0.1492404
-0.14329673 0.13900658 -0.14870429 0.12599228 -0.736706 -0.19258352 -0.28846702 0.15267837
-0.14451306 0.08247121 0.04246799 -0.13020884 -0.21826357 -0.063679144 -0.03520465 -0.2036542
-0.047201194 -0.15291403 0.072862044 0.087121084 -0.17962006 0.104892656 -0.27880788 -0.1315503
-0.14626768 0.02811853 0.078802325 -0.17663005 0.07045154 0.15315758 0.0010198429 0.1479991
-0.17058171 0.07657112 0.14397591 -0.16402408 -0.19219682 -0.16035953 0.18603297 0.13533019
-0.10607845 0.07024108 -0.17944428 -0.20133027 0.086843185 0.11208727 -0.20046814 -0.1645079
-0.23178251 -0.1502019 -0.18189171 0.06306599 0.14154719 -0.14025202 -0.18920587 -0.1883134
0.14326131 -0.13888702 -0.14073233 -0.19875365 -0.22683634 0.120431684 -0.21209936 0.09261902
0.10128769 -0.19149189 0.10051432 0.08194968 -0.1126145 -0.11171537 0.17196254 -0.15996026
0.023832003 0.080771334 0.08307813 -0.2469658 0.058703996 0.0037747398 0.01931451 -0.124929
-0.15772212 -0.1279261 -0.11925716 -0.18341386 -0.08242724 -0.118019946 0.058344282 -0.13033138
-0.14550167 -0.12818293 0.10228222 -0.13327223 -0.08108509 0.13519795 0.08561848 -0.1708286
-0.18299739 0.1249791 -0.1500809 0.124810316 -0.13959786 -0.17469895 0.07868177 -0.13869113
-0.16982393 0.14392377 -0.19989942 0.101281546 0.1688182 -0.15751182 0.117282026 -0.19908991
-0.005021709 -0.14119363 -0.2052843 0.13968043 -0.13589498 -0.213114 0.19063623 0.15791357
0.13218763 0.17776626 0.11337949 0.12517388 -0.15591235 -0.17688513 -0.15416451 -0.15664677
0.08550626 -0.18257503 -0.15003136 0.15310374 0.07010122 0.029506726 -0.057779167 0.13737614
0.12029246 -0.19204786 -0.20226705 -0.11449668 0.1432503 0.13074681 -0.16516064 -0.19314525
-0.12906048 -0.16420665 -0.13716482 0.16086695 -0.09582704 0.1292298 -0.268927 0.17902113
0.115420066 -0.19133921 0.11216557 -0.13631758 0.1584447 -0.17735374 -0.15845218 0.109973855
-0.13196163 0.03581702 0.14526168 -0.14955655 0.098725356 -0.1784446 0.037767015 -0.16690363
-0.11284027 -0.17047356 -0.011527046 0.14790627 -0.15464151 0.15799074 -0.08374182 0.16531675
0.15495187 -0.19310054 -0.15604593 -0.16250442 -0.18483633 0.14012824 -0.13036819 -0.02656885
0.17475127 0.07137291 0.1614576 0.08658253 0.17994182 -0.08552258 0.11120534 -0.11996195
0.14201626 0.14452764 0.13990156 0.11972063 -0.15675381 0.027822958 0.13689466 -0.16636318
0.12632325 -0.08150891 0.1361236 -0.13078512 0.23806186 -0.2445886 -0.07694968 -0.15680088
0.08033485 0.15524904 -0.13904163 -0.118306406 -0.13871874 -0.18817338 -0.20544077 0.16695638
-0.13731973 -0.16111234 -0.09002011 -0.11288959 -0.21129902 0.22402515 -0.1853491 0.08931748
0.07850436 -0.08459468 0.14845864 0.11425522 0.14667864 -0.1813614 -0.13876249 0.013188059

fc2.bias f4 [14]
00000000: ede1 fbbd 6f6c fdbb 5fa0 e43c 0785 d4bd
00000010: cf82 2d3e a7d3 a63d 87c9 82bc 370e 21be
00000020: 7456 86bd 57a4 03bd 2829 963d 8226 e4bd
00000030: 50f0 143d f517 83bd
-0.12298951 -0.0077338736 0.027908502 -0.103769355 0.16944431 0.08145838 -0.015965236 -0.15728079
-0.065594584 -0.03213915 0.07332069 -0.11140157 0.036361992 -0.06401054
