nlp_chatbot/saved_model/model.pth (torch, 237833 bytes, 4 tensors)

fc1.weight f4 [512, 100]
00000000: 4e6e 9ebd d9b2 3d3e a754 b9bb 0c17 ebbc
00000010: 9738 a53c cea6 4dbd ccfa 75bd 4a31 cb3c
00000020: 0d8c f3bd a988 8d3d 4c9e 203e abf5 cb3d
00000030: fc9a 183d be0c adbb f437 5abd 06c8 543d
00000040: 6aea c2bd a378 bb3d 203a f2bc 30d7 41be
00000050: 29e6 fb3c 1406 7eba 14a6 423e be56 f2bd
00000060: 21de 973c 9583 09be a07c 71bd 8e43 113c
00000070: 8c37 2a3d 8d02 c5bc 4aee c63d 150a 00be
00000080: 9e0a 1b3d fbec e63d 00dc c7bd 1849 14bd
00000090: be0d 8bbd 5d5b 5abd 1f27 4abd 7d77 b6bd
000000a0: de29 bbbd 0fbf adbc 0bf7 59bd 3426 a8bc
000000b0: ee88 0abe 74b5 fc3c d0a0 38bb e596 9a3d
000000c0: dd2e 4ebd f0dd f73d 30d4 b0bd eb06 ccbd
000000d0: 9f6f 833d bbff 3c3e b274 203d cdef 173e
000000e0: fc65 2abd 0ab0 23be c061 8bbc d4b6 96bd
000000f0: a186 9fbd 793a e0bd f5b2 1ebd 6097 d0bc
00000100: e97c 173e 2cb0 09be b315 9fbc 134c 003d
00000110: 7c89 443c 350d 433e c59b f8bc c7e8 18be
00000120: 4e49 a83d b341 76bc 41f2 7bbd 9057 663c
00000130: 1a63 f13d 218a ba3d 4896 01bd 8dc1 35bb
00000140: dc54 2d3e 448f 4bbb a6dd 89bd 8898 9f3d
00000150: 16a5 83bd a258 ddbd d1d4 2abd 6838 09bd
00000160: de33 d2bd 4299 95bd 9538 01bb 3d22 a2bd
00000170: 37cb 633d 3f11 27be e600 e43b 2a62 a4bd
00000180: 87c9 3cbd 9c46 343c 968d 11bc c898 b43d
00000190: 5bed 953c f8f7 02bd 3186 fcbc 2991 e83d
000001a0: 105b 373d 58ad bbbd c570 993d 7b55 9ebd
000001b0: d99d cdbc 080e 883c 7c49 223c 1bb0 cebd
000001c0: 311b 813d d513 b8bc ef69 c0bd 5e9e f93d
000001d0: 0740 493e 901b 2b3e 464b 013e 2981 123e
000001e0: 39c5 63bc 783b 643d e211 6e3b 3990 193e
000001f0: d65d 343d 5303 d23d 3eeb 303e 680a a43d
00000200: 6090 8c3c f9d1 ebbd b45e 01bb f69d 94bd
00000210: 6b30 983c f358 fe3d 6776 af3d 912d ebbd
00000220: 3e53 9c3c c28a 8fbd bf5c a4bd 4b79 8fbd
00000230: ff75 36bd d363 4fbd 1176 55bc 8085 91bd
00000240: 773b 38bd fdfe b63d 508b a33d d1dc 923d
00000250: ac53 b83c 1c29 23bd d5b1 ea3b bd12 3e3e
00000260: 15af 093e 7011 5cbd 38aa b8bb 3c3e dd3d
00000270: cacc d2bd cdca d7bc cdb3 99bd 2a1c 23bd
00000280: 9730 123e 58bd ff3c 27e9 c7bd a604 fb3c
00000290: c5d6 2f3e e6fc 1c3e 28a3 9bbd 7840 95bc
000002a0: de8d bdbb c3b3 06be 0d9c 27bc 9d93 123e
000002b0: 10a2 8c3d f4a2 493e c21f 123e ee40 fcbd
000002c0: db96 bfbd ef23 373d c7ac 9b3d 96d1 863d
000002d0: 3806 113e c3d9 57bd 9514 d23d a95f a2bb
000002e0: d28f a9bd 6e83 5d3d 12d2 dfbd 1ec8 60bd
000002f0: 0c35 38bd 36e4 ca3d a38e 4bbd aa1a 45bd
00000300: e5db babd 21fa b6bd 154a f8bd dc9a 2ebb
00000310: 01e4 02bd 3e39 9b3d fa48 1abd ba1b b2bd
00000320: bdb2 b43b 1949 b53d f365 6bbd 2992 1a3d
00000330: c887 01bd 7330 a7bd fd59 aabd 85c6 c0bc
00000340: 8161 9abd ee8f b73d a03c 333e d5b1 35bd
00000350: ecb7 9e3d a724 b0bc e472 a7bd 2c84 e83d
00000360: 9ab4 52bd 6f90 3bbe e831 e53c 9cb5 093e
00000370: 7daf ee3c b9df 803d 94d0 bf3d d1d7 22be
00000380: 9e11 61bd 83b0 e93d 1849 8dbd 295f 8abd
00000390: d75a 73bd d96b d2bd 12dc 203e 5d5e f5bb
000003a0: 657c 2e3d a871 4a3b dbc8 5ebd ea9b 533c
000003b0: d1a8 a7bd 2433 78bd b587 c33d b819 8abd
000003c0: 4599 b3bd 547d adbd dcc5 93bd fc88 a7bd
000003d0: 69ef 613d 5ad1 843c 1b24 423d ed4a d43c
000003e0: 9dc9 043e ca41 073d 7cd8 ef3a d4f7 a8bd
000003f0: 0401 9f3d 7be0 153e dd08 b33c 2bb6 af3d
-0.07735883 0.18525256 -0.0056558433 -0.028697513 0.020168586 -0.050207905 -0.06005363 0.024803776
-0.11891947 0.069108315 0.15685385 0.09958967 0.03725718 -0.00528106 -0.053276017 0.05194857
-0.09517367 0.09153869 -0.029568732 -0.18929744 0.030749397 -0.0009690237 0.19008666 -0.11832951
0.018538537 -0.13429101 -0.058956742 0.008866204 0.04155688 -0.024049068 0.09713419 -0.12503846
0.037851922 0.11275669 -0.097587585 -0.03620252 -0.067897305 -0.053309787 -0.049353715 -0.08909509
-0.09138845 -0.021209268 -0.053214114 -0.02052603 -0.13528797 0.030848242 -0.0028172024 0.07548312
-0.05033766 0.12102878 -0.086342216 -0.09962257 0.064177744 0.18456928 0.03917379 0.1483757
-0.041601166 -0.15985122 -0.017014384 -0.073590904 -0.0778935 -0.10948653 -0.038744885 -0.025462806
0.14793743 -0.1344611 -0.019419527 0.03132255 0.011995669 0.19048007 -0.030347714 -0.14932548
0.08217107 -0.015030312 -0.06151033 0.014058962 0.1178648 0.09108377 -0.03163746 -0.0027733773
0.16926903 -0.0031060735 -0.06731729 0.07792765 -0.06427972 -0.10807921 -0.041706864 -0.03350106
-0.10263799 -0.07304622 -0.0019717563 -0.07916687 0.055613723 -0.16315173 0.006958115 -0.08026536
-0.04609063 0.011003163 -0.008883854 0.08818203 0.018301656 -0.031974763 -0.030825706 0.11355812
0.04476458 -0.09163922 0.07492212 -0.07731148 -0.025099682 0.016608253 0.009905215 -0.10092183
0.063040145 -0.022470394 -0.09395205 0.12188409 0.1965333 0.16709733 0.12626371 0.14307083
-0.013902002 0.055720776 0.0036326577 0.14996423 0.0440348 0.1025454 0.17277238 0.08009797
0.017158687 -0.115146585 -0.0019740285 -0.07256691 0.018577775 0.124193095 0.08567505 -0.114833005
0.019082662 -0.07008888 -0.080255024 -0.07005557 -0.044546124 -0.05063231 -0.0130286375 -0.07105541
-0.044978585 0.08935354 0.07985556 0.07171024 0.022500835 -0.039834127 0.0071623125 0.18561836
0.13445695 -0.053727567 -0.005635526 0.10802886 -0.10292967 -0.02634182 -0.075049974 -0.03982178
0.14276348 0.031218216 -0.09761267 0.030641865 0.17171772 0.15330848 -0.07599479 -0.018219218
-0.005784734 -0.13154511 -0.0102300765 0.14314122 0.068668485 0.19691068 0.14269927 -0.12317072
-0.09354945 0.044712003 0.07601314 0.06582944 0.14162529 -0.052697908 0.10257832 -0.0049552512
-0.08279385 0.05408042 -0.109287396 -0.054878347 -0.044972464 0.09906809 -0.049696576 -0.048121132
-0.09123973 -0.08934427 -0.12123505 -0.0026642596 -0.031955723 0.075792775 -0.037667252 -0.08696695
0.0055144713 0.08851833 -0.057470273 0.037737045 -0.03162363 -0.08163538 -0.08317945 -0.023532161
-0.07538129 0.08962999 0.17503595 -0.044359047 0.07749924 -0.021501852 -0.081762105 0.11353335
-0.051441766 -0.18316816 0.027977899 0.13448185 0.029136414 0.06292672 0.09365955 -0.1590264
-0.05494844 0.1141062 -0.06898707 -0.067564316 -0.059412804 -0.102744766 0.1570895 -0.0074880556
0.0425991 0.0030890498 -0.05439077 0.012915591 -0.08186496 -0.060595647 0.095473684 -0.06743187
-0.08769468 -0.0847117 -0.07215473 -0.081804246 0.05515996 0.016213108 0.047397714 0.025914634
0.12967534 0.033021726 0.001829877 -0.082503945 0.077638656 0.14636414 0.021854812 0.08579668

fc1.bias f4 [512]
00000000: f727 5a3d 2a7a 8f3d a74f a73d e6ac 333d
00000010: 3977 7a3d 7a16 243e 5e65 fbbb d3a3 b63d
00000020: abea 8b3c 2914 da3b ccb3 f1bb 2fd9 df3d
00000030: 71b1 253e 9bfd 1a3e abdf 163e e64c 143c
00000040: 92b2 9e3c 8bf7 f23d 4926 aa3b cdb3 193d
00000050: 6764 693d a2a8 0e3c 8db9 053e b0d0 803d
00000060: 7e9d c33c ee18 f73d 11cf 8f3d b1f6 df3d
00000070: 1bfb 4b3d b55b b73d f720 ed3d be20 053e
00000080: e004 81bb 1c10 3a3e abb8 0c3e 1c22 ac3c
00000090: a803 123e f959 dc3d 759b 2a3e 531b 2c3e
000000a0: f7b1 043d de56 043e ba56 3d3e 8c91 a03c
000000b0: 6222 8d3d 9ad6 1a3e cf51 9a3c bd5f 8d3d
000000c0: 71dd 103e 21a5 f23b 2ab2 993d a8da 413c
000000d0: 5fe8 fd3d df6c 913d 0e37 8c3c f0b5 873c
000000e0: 28e1 f43d cbab 2b3d aec7 853d 27f0 4fbc
000000f0: 74e0 ceba bb1a c83c d672 fc3d f6b5 113e
00000100: 2870 983b afa4 373d 2ab7 303d 004c cf3c
00000110: 9b3a 943d e82e f73d e594 6b3d ecb6 cc3b
00000120: 73c1 23bc cc1f 8f3d 1652 143e 43a7 653c
00000130: c9e9 843d fefe f03d 2f96 813d cdbf 3f3d
00000140: e2b6 493d 0f17 b03d 509c ec3b c7ea 1e3e
00000150: e5ec 9b3d 6b2c 463d 417e 143d 1bac 953d
00000160: 2d71 3d3e 438c bf3d 68ef 393e e98c 0b3e
00000170: a838 3b3d 4e5a 9c3d 8a3e 803d 5bdd 1c3e
00000180: 52bc fd3d 6013 ac3d 6c0b bd3b 3aab 353e
00000190: cfa0 dc3d 0eef 683b a3c5 a93d 95cc 273e
000001a0: f330 0c3d 388d 383c f226 8b3c 0a46 0d3e
000001b0: d8e8 f13c 4a36 0f3e f3a0 ad3d 4aa2 de3c
000001c0: 5650 3e3e 6f62 083e a95f 2e3d 7010 ab3d
000001d0: f7ed 2a3b 8902 8d3d 4f13 083e 550e 92ba
000001e0: bf07 2c3d 365c a93d ea92 163e bb9c ff3d
000001f0: 308d 093d 8c17 f53c f7f7 333e b09d e73b
00000200: 9bf4 b63d 3724 6a3d f4f9 303e 19d8 203e
00000210: 78ec 3c3e a0f0 283e 66ba 703d 6b60 f03d
00000220: 9b94 043c 6192 ae3d 6cfb 433e e7ca 313d
00000230: 0da9 ce3d 5370 a43c 4dc5 7e3c 41b1 b93c
00000240: d19a bc3d 8d70 d93d fdfb b03d f5ab de3d
00000250: 493d f73d ecad 9b3d ddf9 8ebc 9fba 353d
00000260: 5a04 303d 8ffd a13d 6c04 393e d46c 2d3b
00000270: 552f 833c e7ad 0c3e 29d3 f53d 575c 313d
00000280: 1778 913d 4c63 b33d b20e 963b 0356 3f3c
00000290: 258c 103e 84f2 7a3d 526c 353d 5f69 1b3d
000002a0: 80da 263e 2da7 733d 9690 353c acf8 123e
000002b0: 7535 21bc a857 483c 22f0 343e 220e c33d
000002c0: 894a d13d 8179 2fbc 5777 313e 0880 f73d
000002d0: 0de9 683d 6400 8f3d 381c 493d 8072 ca3c
000002e0: 0ee7 b53d 1db2 103e e4a0 293b aaa5 043e
000002f0: 21b9 003e a6a1 62bd 95d2 473d d0c1 203e
00000300: c7e8 e63d 4a60 823d 7bc7 893d a0cc 9e3c
00000310: 7e8e 2d3e 3eb1 583d d435 173e b56f 9a3d
00000320: 553a d8bb 4fd5 963d a7fe 4d3c 1ded 913c
00000330: 9732 733d 227c 273e 6cda 333d 3833 403e
00000340: 8697 d53d e4fe 423d d596 203e b27a 523d
00000350: 2280 a03d 1cd3 d03d 1d5b e63c 9545 7a3d
00000360: e692 913d b59b c63d 2baf 1c3e c8dc 973d
00000370: d205 093e c01b 933c ee09 fc3d 9de5 0b3d
00000380: db50 cebb 516c 873d 51ad 2e3e 578d 9b3d
00000390: d3a9 b53a 2ce4 8a3c d865 023e 55b6 0a3e
000003a0: 78b3 7a3d 8e10 cf3d 8595 85bb 7f03 8f3d
000003b0: cd9c 153e 82aa d23d cc6f 59bb 5003 133e
000003c0: c262 c93d 10a4 583d 778a 1f3d 9769 fc3d
000003d0: b91c 4f3d 89e5 6f3d b800 ea3d 6b2f 163e
000003e0: f7dd aa3c 8336 213d 7bc7 803c 9d82 153e
000003f0: 0379 313d 609f bc3d b2c9 943d d646 fa3d
0.05326077 0.07005723 0.08169489 0.04386606 0.061148856 0.16024199 -0.007671996 0.08917966
0.017079672 0.0066552353 -0.00737617 0.10930096 0.1618097 0.15135805 0.1473376 0.009051537
0.019372258 0.11863621 0.005192552 0.037524987 0.056980517 0.008707197 0.13059063 0.06289804
0.023878809 0.12065302 0.07021917 0.109357245 0.04980002 0.089530386 0.11578553 0.13000771
-0.0039373487 0.18170208 0.1374232 0.021012358 0.14259207 0.107593484 0.16660865 0.16807298
0.032396283 0.12923762 0.18490115 0.019600652 0.068913236 0.15120926 0.018837838 0.06903026
0.14146973 0.007404939 0.07504685 0.011831917 0.12397837 0.07100844 0.017116096 0.016566247
0.11957008 0.04191188 0.065322265 -0.012691534 -0.0015783445 0.024426809 0.12326591 0.14229569
0.004652042 0.04483479 0.04314343 0.025304794 0.072377406 0.120694935 0.057515044 0.006247392
-0.009994852 0.06988487 0.14484438 0.014016929 0.064899035 0.11767386 0.06327473 0.046813775
0.049246676 0.08598148 0.0072207823 0.15519248 0.076135434 0.048382204 0.036253218 0.07308217
0.18500204 0.09352925 0.18157732 0.13627972 0.04570833 0.07634412 0.062619284 0.15318815
0.12389435 0.08402133 0.005769184 0.17741099 0.10772859 0.0035542878 0.08289649 0.16386636
0.03422637 0.011264138 0.016986344 0.13796249 0.029529974 0.13985553 0.08477964 0.027176995
0.18585333 0.133188 0.042571697 0.083527446 0.002608178 0.06885249 0.13288616 -0.0011143187
0.041999575 0.08269541 0.14704481 0.12481066 0.033581913 0.029918455 0.1757506 0.0070683584
0.089333735 0.057163443 0.1728285 0.15707435 0.1844958 0.16498041 0.058771513 0.1173714
0.008092071 0.08524013 0.19138879 0.043406393 0.10090838 0.020073092 0.01554997 0.022667529
0.092092164 0.106171705 0.08641813 0.10872642 0.12072236 0.07601532 -0.017453128 0.04436743
0.0429729 0.079096906 0.18068093 0.0026462572 0.01601378 0.13738213 0.12003166 0.043300953
0.071029834 0.08759174 0.0045793885 0.011678222 0.14115961 0.061266437 0.044292755 0.037942287
0.16294289 0.059485603 0.011081835 0.14352673 -0.009839405 0.01222793 0.17669728 0.0952418
0.102192946 -0.010710121 0.17330681 0.12084967 0.05686288 0.069824964 0.049099177 0.024712801
0.08881961 0.14130445 0.0025883252 0.12953821 0.12570621 -0.05532994 0.04878481 0.15698934
0.112748675 0.06366022 0.06727501 0.019384682 0.16948888 0.052903406 0.14766628 0.07540838
-0.0065987506 0.07364904 0.012572921 0.01781326 0.059374418 0.16355947 0.043909475 0.18769538
0.104292914 0.047606364 0.15682538 0.051386543 0.078369394 0.10196516 0.028119618 0.061101515
0.07108097 0.096976675 0.15301196 0.074151576 0.13381127 0.017957568 0.123065814 0.034154523
-0.00629626 0.066124566 0.17058302 0.07595318 0.0013859816 0.016954504 0.12734163 0.13546117
0.06120631 0.101105794 -0.004076662 0.06983089 0.14610596 0.10286428 -0.0033178208 0.14356732
0.0983329 0.052890837 0.03895041 0.12324827 0.0505645 0.05856851 0.11425918 0.14666526
0.020857794 0.039358627 0.01572012 0.14600606 0.043328296 0.09210086 0.07265033 0.12220542

fc2.weight f4 [14, 512]
00000000: 72d0 db3d 7d5d a43d 8275 0abe 0786 4e3c
00000010: f9bc 22be 706f 103d b832 b93d a08a 893d
00000020: e865 ae3d 01ce 71bd 04f1 c7bd b5bc 4bbd
00000030: c61f f1bd 9722 f0bd c63e d5bd b402 fdbd
00000040: daaf edbc 0c30 dfbd 8652 903c afb3 873d
00000050: 1c64 b0bd 978e b7bd 3408 05be 5c71 cf3d
00000060: f4f9 c4bd d82b 07bd a68b 16be 34da b7bd
00000070: 9568 83bd e5e1 2bbd f616 ef3d c968 b5bd
00000080: 2fb3 983d 9fcd d2bd f68a ca3d 9b77 f13d
00000090: afb5 dabd 6030 973d 4b10 f93d ad2f b4bd
000000a0: b2b6 db3d 2813 a5bd 7c4e d2bd cd40 efbd
000000b0: a9de 9d3d 817b f0bd cea3 bd3d eef3 f83d
000000c0: f114 ac3d adcb e2bd 7e63 9bbc e186 e2bb
000000d0: c046 bfbd 4110 d7bd 02c4 c23d ce23 ebbd
000000e0: 5879 dcbd 8cfd 21bd 5c05 043e 3352 f9bd
000000f0: fb57 c73d 39d1 9dbd 172d a5bd 420b e4bd
00000100: 9987 d7bd b744 49bd 2e73 a93d 4d0d 10be
00000110: 0449 b43d d21e f83c dec7 11be b9e6 a2bd
00000120: 654d 1dbe e802 513d 7013 81bd dd43 ecbd
00000130: e21b 0dbe 55eb ba3d eea3 2abd c4e2 df3d
00000140: 331b e43d abe4 9d3d a452 983d 9843 e8bd
00000150: 21c9 a53d 46fc db3d e644 053d b510 0dbe
00000160: 1b00 66bd 3634 dabd fdfa 8b3d 8a0d 00bd
00000170: c1d5 39bd 4010 81bd b15a e9bd 06fa dabd
00000180: 412f 833d 2eb8 11be 6e0f e53c 59b4 b3bd
00000190: f442 0ebe 41b8 a9bd 39f8 5bbd 9411 b2bd
000001a0: 516a 063e 9d6b 233d 16a4 063d cf58 bfbd
000001b0: 1f48 d9bd 4085 42bd 351b 2fbd 26e1 b03d
000001c0: d5f7 1fbd 2bed 17be 1c05 b83d 902c 9ebd
000001d0: 26f3 ad3d 632f d6bd e92d babd 063b 963d
000001e0: 859a 15be 63e4 07be c4d1 c63c 1588 eb3d
000001f0: d789 edbd ba27 e83d d843 efbd 6449 bf3d
00000200: 7d14 4d3d 04d1 b43d 7c2b cfbd 45c3 1fbd
00000210: 15d3 253d 3338 08be 4263 82bd 98d2 e0bc
00000220: 2aec 17bc e9a2 00be 71eb f0bd 1f69 4ebd
00000230: acdd 49bd 401e d6bd 338f a83d e4cc e1bd
00000240: bf41 8f3d ce18 0d3d 2ce9 01be f9d1 33bc
00000250: 439f ed3c 3936 f3bd c176 d43d 58ef 22bc
00000260: 6721 98bd 5619 03be 0a63 d9bc c95c 4c3d
00000270: 70c1 0bbe 9130 6fbd 6f8d ecbd 44ff 9c3d
00000280: c414 c3bd f67a bbbd ba14 ecbd 7cd6 bb3d
00000290: 8a29 cbbd c2e7 b5bd f057 ec3d c95f e83d
000002a0: 8ba3 bbbd a6a3 d9bd 421e afbd b9d6 a0bd
000002b0: dc2f c6bd b98e 1ebe 5189 8abd 9143 edbd
000002c0: dca6 dbbd c36d 013d 4855 f53c c3f4 7d3d
000002d0: 88b2 a73d a2c6 053e 54aa f83d e6c1 ef3d
000002e0: 8d97 2d3d c67e b93d 6105 a6bd 5c9e 86bd
000002f0: a615 883d 8147 f43c 1f34 ee3d 3b85 07be
00000300: 822a 863d f4f9 b93d 4585 c03d 951b d13d
00000310: 521c a83d e1b5 b93d 01e7 603d 4165 a8bd
00000320: 4bd2 aebd 94e1 993d 5cd8 0fbe 42f7 8dbd
00000330: 8875 10be 66f4 7fbd 8ba1 e5bd cb89 6d3d
00000340: 6353 9ebd 9f32 64bd 3c40 7cbd 1b93 c4bd
00000350: 4634 d8bd 3869 be3d 739f ba3d f4d2 0a3d
00000360: 5d37 f3bd 618e fcbd 1a29 85bd 31d0 eebd
00000370: a1f2 b7bd f459 0cbe aa88 9a3d 6426 ffbd
00000380: 1ad3 4cbd d824 a7bc cbd1 07bd 381d df3d
00000390: d7c4 713d 4ec7 90ba 7da2 be3d 6938 a8bd
000003a0: 7448 01be fded e0bd b378 c63d 01df 07be
000003b0: 8d25 04be c8b3 e8bd 936f dfbc 4834 c93c
000003c0: df93 d3bd ba01 bf3d f499 f73d 0f60 9abc
000003d0: ac89 adbd 8213 2dbd 3a57 ddbd e182 bb3c
000003e0: d884 39bd 4461 d63d 9f44 56bd 2538 c73d
000003f0: 864a 2abd b982 f9bd de90 e8bd 1485 d13d
0.10733117 0.08025644 -0.13521388 0.012605197 -0.158924 0.035262525 0.09042877 0.06715894
0.08515531 -0.05903435 -0.09762767 -0.049740512 -0.117736384 -0.117253475 -0.10412364 -0.12354031
-0.029014517 -0.10897836 0.017617475 0.06626069 -0.08612844 -0.08962744 -0.1299141 0.101290435
-0.09617987 -0.033000797 -0.14701709 -0.08977166 -0.06416432 -0.041963477 0.11674301 -0.08857877
0.074560516 -0.10293125 0.09889786 0.11790391 -0.10679185 0.07382274 0.12161311 -0.08798156
0.10728206 -0.080602944 -0.10268876 -0.11682282 0.07708485 -0.117423065 0.09259759 0.12155901
0.08402432 -0.11074004 -0.01896834 -0.0069130515 -0.09339666 -0.10501147 0.09510042 -0.114814386
-0.10765332 -0.03954844 0.1289267 -0.121738814 0.09733578 -0.07705922 -0.08065241 -0.1113496
-0.1052391 -0.049137797 0.08273922 -0.14067574 0.08802989 0.030288134 -0.142364 -0.07954163
-0.15361555 0.051028162 -0.063025355 -0.115363814 -0.13780168 0.09126917 -0.04166024 0.10931924
0.11138 0.077096306 0.074376374 -0.113410175 0.08095003 0.10741477 0.03253641 -0.13775904
-0.056152444 -0.1065449 0.068349816 -0.03126291 -0.045369867 -0.063019276 -0.11394251 -0.106922194
0.06405497 -0.14230415 0.027961459 -0.08774633 -0.13892728 -0.08287097 -0.05370352 -0.08694759
0.13126494 0.03989755 0.03287133 -0.09343111 -0.10609459 -0.04749036 -0.042750556 0.08636694
-0.03905471 -0.14836566 0.089853495 -0.07723343 0.084936425 -0.10458257 -0.09090788 0.073354766
-0.14609726 -0.13270716 0.024269946 0.11500565 -0.115985565 0.11335702 -0.11682862 0.0934017
0.050068367 0.08828929 -0.10115716 -0.039004583 0.040484507 -0.13302688 -0.06366588 -0.027444169
-0.0092726145 -0.12562145 -0.11763657 -0.05039322 -0.04928367 -0.104549885 0.08230438 -0.11025408
0.06994962 0.034447484 -0.12686604 -0.010975354 0.029006606 -0.118755765 0.10374213 -0.009944759
-0.07428246 -0.12802634 -0.026536483 0.049893174 -0.1364801 -0.058395926 -0.11550414 0.076658756
-0.09525445 -0.09154312 -0.11527391 0.09171769 -0.09920032 -0.08882095 0.1154021 0.113463946
-0.09162053 -0.106269166 -0.08550693 -0.07853455 -0.09677097 -0.15484132 -0.06764472 -0.11585153
-0.10725185 0.031598818 0.029947892 0.062001 0.08188349 0.13064054 0.121418625 0.11706905
0.04238086 0.09057383 -0.08106495 -0.065731734 0.06644754 0.029819252 0.11631035 -0.13234417
0.065510765 0.09080878 0.09400419 0.10210339 0.08208527 0.09067894 0.054907802 -0.08222438
-0.08536204 0.07513729 -0.14047378 -0.06931926 -0.14107335 -0.062488936 -0.112124525 0.057992738
-0.077307485 -0.05571234 -0.061584696 -0.09598371 -0.10556845 0.09297413 0.09112444 0.033892587
-0.11875794 -0.12331844 -0.0650198 -0.11660803 -0.08981825 -0.1370619 0.07545598 -0.12458494
-0.05000601 -0.02040331 -0.03315906 0.10894245 0.05902561 -0.0011045726 0.09308336 -0.082138844
-0.12625295 -0.10982893 0.0969099 -0.13268663 -0.1290495 -0.113624156 -0.027274882 0.024561062
-0.103309385 0.09326501 0.12089911 -0.018844632 -0.084735245 -0.042254932 -0.10807653 0.022889556
-0.045292705 0.10467771 -0.052311536 0.097275056 -0.041574977 -0.121831365 -0.11355756 0.10230461

fc2.bias f4 [14]
00000000: 7ed2 43bd 7c82 83bd 19fe 823c a0f7 a6bd
00000010: 04c0 8f3d 791e 773d 958a e4bb 2da5 eebd
00000020: 4a57 61bd 7581 b2bd f3e7 1d3d 62d1 b4bd
00000030: 31f0 853d 1f22 5bbd
-0.047808163 -0.06421372 0.015990304 -0.081526995 0.07019046 0.060331795 -0.006974528 -0.116525985
-0.055014886 -0.08716098 0.038551282 -0.08828999 0.065399535 -0.053499337
