nlp_chatbot/saved_model/model.pth (torch, 237833 bytes, 4 tensors)

fc1.weight f4 [512, 100]
000000 b2 fd d3 3c f4 5d fb 3d 5f 5b 46 3d 1c bd 9e bc
       0.025877807 0.122737795 0.048426982 -0.019377284
000010 f5 17 55 bd 96 64 ee 3d cf fd 20 3d 3a 3f 41 3e
       -0.0520248 0.11640279 0.03930455 0.18871775
000020 b7 ba 33 bd f2 18 c1 3c 4f 94 5d 3d 46 33 99 bc
       -0.043879237 0.023571465 0.054096516 -0.018701207
000030 6f 73 03 3e 54 36 18 3e 7b 70 d5 bc 08 33 06 3e
       0.12837003 0.14864475 -0.026054611 0.13105404
000040 69 83 cc bd 5f 0d 3e 3d 52 4f ee 3c cb a4 e2 bd
       -0.09986002 0.04639947 0.029090557 -0.11066588
000050 1e 7d 5e 3d ef 4a 0c 3e 34 90 19 bd 00 e6 18 be
       0.05431854 0.1370046 -0.03749104 -0.14931488
000060 e9 90 06 bd f6 8e 29 bd b9 0e d4 bd f2 cb 18 3c
       -0.03285304 -0.041396104 -0.103543706 0.009325968
000070 4f 2b 2b be 2e 8e 3b 3e 21 0d ed bc ca 1c 7f 3c
       -0.1671574 0.18315956 -0.028936924 0.015570829
000080 19 8e 1d 3c d9 1d 3f bb 9c 37 11 be 79 df 73 bd
       0.009616398 -0.0029162078 -0.1418137 -0.059539292
000090 36 94 76 bd 75 4b e4 bd b6 9f a4 bd a7 4b eb bc
       -0.06019994 -0.11147205 -0.08038275 -0.028722597
0000a0 ff df 13 3e 87 2c 72 bd e5 ac 8a bd 92 3f 84 bd
       0.14440916 -0.059124496 -0.06771258 -0.064574376
0000b0 6e f4 03 be 9f 8c 0a 3e 9a 67 c3 bc 32 7e 92 bd
       -0.12886211 0.13530205 -0.023853112 -0.07152976
0000c0 7c 3c 81 3d 46 a8 32 3d 28 79 01 3e b6 7b c3 bd
       0.063103646 0.04361751 0.12643874 -0.0954508
0000d0 85 eb 9e 3d e6 61 24 3e df be 3f 3d 4e c2 09 3e
       0.077597655 0.1605297 0.04681289 0.13453028
0000e0 34 d8 94 bc 75 8d be 3d 20 69 6c bd 47 54 dd 3d
       -0.0181695 0.093043245 -0.057717443 0.1080709
0000f0 09 5f 84 3c 7e a3 cc bd b9 11 fc bd ab 07 b6 3d
       0.016158598 -0.09992121 -0.12308068 0.08888181
000100 c1 b2 a2 3d 83 c5 6f bc 91 b7 94 bc 5b 0d e8 3d
       0.07944251 -0.014634493 -0.018153938 0.11330672
000110 bd 4a b6 3d 15 e0 e0 3d e7 e1 22 3c c3 94 40 3e
       0.08900974 0.1098024 0.009941555 0.18806748
000120 5d 2f 34 3d 09 e6 e2 bd 21 63 99 bd f5 17 4f be
       0.04399048 -0.11079032 -0.074896105 -0.20223983
000130 50 42 3e be 12 e7 4b bc 4c 44 af 3d e8 b3 9e bd
       -0.18579984 -0.012445228 0.085579485 -0.07749158
000140 15 9d 82 bd 96 90 e8 bb b3 68 3e bc 35 65 18 bd
       -0.06377617 -0.007097314 -0.011621642 -0.037205894
000150 5b a8 88 3d 73 07 96 bd 1e b0 89 bb 63 ef bc bd
       0.06672736 -0.073256396 -0.004201903 -0.09225347
000160 75 39 5b bc 1e f6 f6 bc 73 23 9b bd 3e ff ba bd
       -0.013380398 -0.030146655 -0.07575121 -0.09130715
000170 55 37 39 3c d1 a7 e3 bd 35 c0 2f 3d 47 d2 fe 3c
       0.011304696 -0.11115993 0.042907912 0.031106127
000180 35 0e 81 3d 36 37 58 3d 76 d2 87 3c 27 4c e0 bc
       0.06301538 0.05278703 0.016579848 -0.027380062
000190 1f 68 e5 3d 76 22 a7 3d ea 58 67 3a ba 17 c7 bd
       0.112015 0.0816087 0.00088252 -0.09721322
0001a0 d3 3a 8f 3c 34 6c be bd 98 91 24 3e 45 2e c9 bd
       0.017484104 -0.09297982 0.16071165 -0.09823278
0001b0 a7 bd bd bd fb c0 2f 3d b4 49 ee bc 90 5b d3 3c
       -0.09264689 0.04290865 -0.029087879 0.025800496
0001c0 d6 03 f4 3d c5 3b 02 3d c1 06 81 3d c0 35 6c bd
       0.11914794 0.031795282 0.06300116 -0.057668447
0001d0 ed e2 e9 3d 07 90 3f be 82 10 ed 3d 55 61 35 bd
       0.11420236 -0.18707286 0.11575414 -0.044282276
0001e0 b1 2b 11 3d 55 40 51 3d ce 32 7b 3d 44 62 3c 3e
       0.035442058 0.051086742 0.061327748 0.1839686
0001f0 c9 88 82 3c 73 bd 2e 3c 55 11 f5 3d 3c 77 89 bd
       0.015934365 0.010665285 0.119661964 -0.06712195
000200 be 36 56 3c af a8 06 be 3d 01 22 3e ff 8c a5 3c
       0.013074575 -0.13150285 0.15820785 0.020208834
000210 01 69 1a 3e da b6 0e bd 78 b0 4a 39 37 83 20 3d
       0.15079118 -0.03484235 0.00019329961 0.039187636
000220 5a e8 a2 3d 95 f5 f5 bc 31 c8 90 3d 6b 9a 22 ba
       0.07954474 -0.03002433 0.070694335 -0.00062028196
000230 68 c6 a0 bd 4c f9 1d be f5 0e 3f 3d c5 ec a7 3d
       -0.07850343 -0.1542713 0.046645124 0.08199457
000240 28 9d ee 3c 30 0f c7 bd 75 20 f9 bd 0e f7 f3 bd
       0.029127672 -0.09719694 -0.12164394 -0.11912356
000250 8c 39 65 3d ef 99 f0 3c 32 ce 75 bd 89 76 28 3e
       0.055963084 0.029370276 -0.060011096 0.16451468
000260 9a eb cf 3c 88 a3 41 3c 05 7b 1f bc 57 4f d0 3d
       0.025380898 0.011818774 -0.00973392 0.10171383
000270 91 4e f0 bd 09 c9 59 bd 90 0a 5e 3d 39 79 b3 3a
       -0.11733735 -0.053170238 0.054209292 0.0013692743
000280 2c 4d 21 3d 88 c4 3e 3c 13 6b 31 be dd d8 52 3d
       0.039380237 0.011643536 -0.17326002 0.05147635
000290 7b f8 c2 bc 77 2e 9a 3d 86 4a 10 bd 9e 3e 9e 3d
       -0.023800125 0.07528394 -0.03522732 0.07726787
0002a0 86 53 8c bb e6 8c 91 3d 90 6f bb 3d 00 36 ca bd
       -0.0042824177 0.07106952 0.09152138 -0.09873581
0002b0 a2 f4 14 3d 98 9a 24 3e 5f 7f 7e 3d 1d 64 aa 3d
       0.036366113 0.16074598 0.06213319 0.08319876
0002c0 ed 9a 45 3e f8 d2 87 3d 74 80 a0 3d e8 a1 d9 3d
       0.19297381 0.06632036 0.078370005 0.10626584
0002d0 94 ce 4d 3d 72 0e 14 be 38 a4 0c 3e eb 15 56 3d
       0.050245836 -0.14458635 0.1373452 0.052266996
0002e0 b9 00 22 be 8b 40 e9 bc 3b ee 7e 3c d1 e2 9d bc
       -0.15820588 -0.02847316 0.015559728 -0.019273194
0002f0 aa e7 19 be 90 30 30 bd 46 bb 0a 3e 49 65 88 3d
       -0.15029779 -0.043015063 0.13548002 0.066599436
000300 b3 30 c7 bb 54 35 30 bc aa 2f 09 bd c5 c0 ff bd
       -0.0060788034 -0.010754902 -0.03349272 -0.1248794
000310 2c b7 8d 3c 77 7f e7 3d a0 c6 80 bd 89 f1 52 3d
       0.017299257 0.11303609 -0.06287885 0.051499877
000320 9d 8e 4f 3a 14 94 59 3d 8d 86 5b bd f3 8f 2d 3d
       0.00079176744 0.053119734 -0.053595114 0.04237361
000330 ff e4 64 3d b9 93 da bd a8 55 af bd d5 f2 f7 3c
       0.05588245 -0.10672707 -0.085612595 0.030267159
000340 de 01 67 bd fa 83 ed bb 5d a1 05 bd 84 c4 04 be
       -0.056398265 -0.007248399 -0.03262459 -0.1296559
000350 3f d6 f7 3b 19 45 91 3d 1d 6f 3c 3e 1f ad 22 3e
       0.007563382 0.070932575 0.18401761 0.15886353
000360 cb b3 9e 3d 96 7d 32 3e d1 f8 bb 3d 08 b4 da 3d
       0.077491365 0.1743072 0.09178317 0.106788695
000370 d8 6f 39 be 2d 15 9c bd 02 2f c5 3d 27 38 85 bd
       -0.18109071 -0.076212265 0.09628107 -0.06504851
000380 1d e6 4f bd 4e c5 a2 3d 2f d9 22 3e d6 58 cb 3d
       -0.050756563 0.07947789 0.15903161 0.099290535
000390 23 ea 8e bc f5 d9 ff bd ba 2b 5e bd 11 1a a6 3d
       -0.01744563 -0.12492744 -0.05424092 0.081104405
0003a0 34 35 b2 bc 0c d9 8e bd 98 ba 4e 3c a5 3b b5 bd
       -0.021753885 -0.06974992 0.01261773 -0.08849267
0003b0 ab 14 a3 bd 98 f1 87 bd 17 a4 98 3d 86 b8 05 bd
       -0.079629265 -0.06637877 0.07453173 -0.03264668
0003c0 2a 80 0f 3e 14 13 92 bc 85 ea ab bd a9 18 5e bd
       0.14013734 -0.017831363 -0.083943404 -0.054222737
0003d0 2f 62 3c bb ee b3 09 3e 28 ff f6 3d d7 79 5d 3d
       -0.0028745045 0.13447544 0.12060386 0.054071274
0003e0 60 96 de 3d 89 3d 6e bd 13 5b 8e 3d 50 7b e2 3d
       0.108685255 -0.058164153 0.06950965 0.11058676
0003f0 4f f3 ba 3c c5 d2 ea bc c9 99 03 3e 8a b4 56 3d
       0.022821097 -0.028664956 0.12851633 0.05241827

fc1.bias f4 [512]
000000 d3 75 c2 3d 99 e3 21 3e b7 7a 05 3d 93 59 f5 3c
       0.094951294 0.15809478 0.032587733 0.029949939
000010 03 c6 b1 3d 81 3f 3b 3c 67 65 71 bb a8 7d 2b 3e
       0.08680346 0.011428715 -0.0036834122 0.16747153
000020 2c cd 17 3d 73 c7 fa 3d 25 c2 48 3c ad 13 9d 3d
       0.0370609 0.12245073 0.012253319 0.076697685
000030 7d 06 10 3e a6 13 1a 3b 92 0f 0e 3e 92 79 12 3e
       0.14064975 0.0023510247 0.13873127 0.14304188
000040 fe 3e 1c 3e bc 34 ad 3d 69 96 1f 3d 3b 00 df 3d
       0.15258405 0.08457324 0.0389618 0.10888716
000050 7a b8 6d 3d 3d 52 36 3e 3a 79 ec 3d 99 9e aa 3c
       0.05803726 0.17804809 0.1154656 0.020827578
000060 88 41 15 3c 60 72 1a 3e 81 6e e2 3d 98 82 9f 3d
       0.009109862 0.15082693 0.11056233 0.07788581
000070 d1 9e ae 3d d5 23 f5 3c 11 a0 02 3e 4f 7d d0 3d
       0.085263856 0.029924313 0.12756373 0.10180151
000080 3d a1 23 3e 1c 2b b1 3c a2 6d 3b 3e 27 08 96 bc
       0.15979476 0.021627001 0.1830354 -0.018314434
000090 3c 77 97 3d 31 d0 03 3d b2 49 c3 3d 8c ad 15 3c
       0.07395789 0.03218097 0.09535541 0.009135615
0000a0 4c ae e9 3d d1 e8 4b 3d 0b ac 52 3e 3b bd 8e 3d
       0.114101976 0.049782578 0.20573442 0.069696866
0000b0 2c 0c 86 3d 22 79 a4 3d 43 3e 2c 3e cd 75 9a 3d
       0.0654529 0.08030917 0.16820626 0.07542
0000c0 3e 16 22 3d 72 8d 9d 3b 7f bf 1e 3e 75 7a 47 3d
       0.039571993 0.0048081214 0.15502737 0.04870077
0000d0 79 ee 89 3c 64 0b 77 3d 83 81 0e 3d 59 b2 f7 3d
       0.016837345 0.060313597 0.03479148 0.12094564
0000e0 ea fe a7 3c e2 21 45 3e e1 4b 0f 3d 0d a3 5c 3c
       0.020507295 0.19251207 0.034984473 0.013466609
0000f0 43 27 13 3e fc 6f f2 3c 56 ce 4f bc 34 83 9e 3d
       0.14370446 0.029594414 -0.012683472 0.07739869
000100 8a 2f 9f 3d 97 84 2d 3e c8 7e ec 3d 33 c9 00 3d
       0.07772739 0.1694511 0.11547619 0.03144188
000110 d3 f3 1c 3e 01 24 3e 3d 2f 05 0e 3e 8b 4a 5b 3d
       0.15327387 0.046421055 0.13869165 0.053537887
000120 ce 68 cd 3d b8 cc 3e 3e 64 1c ed 3d 4c 80 82 3d
       0.100297555 0.18632782 0.11577681 0.06372127
000130 24 0e 23 3c 79 f1 3c 3d 19 01 23 3e df 5f 16 3e
       0.009952102 0.046128724 0.15918387 0.1468501
000140 f9 a0 86 3d 56 64 67 3d 48 e9 56 bc 1a bb c8 3c
       0.06573672 0.056492172 -0.013117142 0.02450328
000150 c2 f4 1a 3c c4 f7 c0 3d 5f 69 14 3e a3 11 c9 3d
       0.009457769 0.094222575 0.14493321 0.09817817
000160 19 e2 b8 3c 61 63 19 3e cb 3e 76 3b 12 20 0d 3d
       0.02256875 0.14979316 0.0037574049 0.034454413
000170 8d b0 44 3d aa fc c1 3d 65 9a 31 3e f0 ec c4 3c
       0.048019934 0.0947202 0.17344053 0.024038762
000180 0e fc 23 3e 34 5b 05 3d e8 83 1d 3e 30 7c 89 3c
       0.1601412 0.03255768 0.1538235 0.01678285
000190 07 a4 82 3d 67 96 92 3d 2a 7a 0e bc 0c b0 cf 3d
       0.06378942 0.07157593 -0.008696118 0.10141
0001a0 d3 c6 5a 3b 62 0e 10 3d 5b a8 29 3e 87 af 84 3d
       0.0033382669 0.035169967 0.16568129 0.06478792
0001b0 bb 74 9f 3d f8 b4 d5 3c 1e 7f 32 3e 1f 31 b1 3c
       0.077859364 0.02608727 0.17431304 0.021629868
0001c0 b9 ef 9c 3c 3f 67 8c 3d cc 6a a6 3d f1 25 8b 3d
       0.019157277 0.0685563 0.08125839 0.06794346
0001d0 c5 79 13 3d 97 0f 86 bc b1 02 ad 3d d0 12 f4 3c
       0.0360048 -0.016364856 0.08447779 0.029794127
0001e0 4d 32 d7 3d 04 b5 c2 3d f7 6c a4 3d db 04 44 3e
       0.10507641 0.09507182 0.08028596 0.19142477
0001f0 f1 cf ab 3d f3 f4 2c bc 05 16 77 3d 59 52 32 3e
       0.08389271 -0.010556447 0.060323734 0.17414226
000200 64 7b 00 3d 83 a9 01 3e 16 5d 16 3d 8d da 6d 3d
       0.031367674 0.1266232 0.036709867 0.058069754
000210 a7 b3 09 3d 86 75 35 bc 66 94 c2 3d 63 0b 27 3e
       0.033618595 -0.011075383 0.09500961 0.16312937
000220 50 3a 0b 3e d3 a8 4c 3c 11 4e 78 3d 62 b5 77 3d
       0.13596463 0.012491423 0.060621325 0.060475715
000230 8c 62 e8 3d b9 03 dc 3d 79 1d 5c 3d 0b 04 09 3e
       0.11346921 0.107428975 0.053739045 0.13380449
000240 ae 37 bd 3d 20 cb 01 3d 4d b2 de 3d ba 47 08 3e
       0.09239136 0.031687856 0.10873852 0.13308612
000250 d0 3b 2a 3d 6c ca 02 3c 42 9f 7f 3d e4 73 da 3d
       0.041560948 0.007982831 0.06240774 0.10666636
000260 cb dd 14 3e 0c 21 21 3e 3f cb 1f 3e 30 10 54 3e
       0.14537732 0.15735263 0.15604876 0.207093
000270 ca 64 3e 3e 2f 33 b4 3d 41 a4 8b 3d 68 d4 66 3c
       0.18593135 0.08798825 0.06818438 0.0140887275
000280 c0 e5 dd bb 16 1c 78 bb a6 fc 9d 3d e3 cd b7 3d
       -0.006771773 -0.0037858537 0.077142045 0.08974817
000290 4d df e5 3c ba 11 32 3e 77 e6 f1 3c 45 59 4d 3e
       0.02806058 0.17389575 0.02952884 0.20053585
0002a0 d7 e6 2a 3e 7c 49 93 3d 91 5f 40 3e f1 fb 3c 3e
       0.16689621 0.071917504 0.18786456 0.18455483
0002b0 69 4e ba 3d 4f a5 34 3e 63 c4 bb bb e4 75 20 3e
       0.09096987 0.17641185 -0.005730198 0.15669972
0002c0 a3 31 6d 3d bc 80 ae 3d 19 c8 21 3e ee 20 e0 3c
       0.057908665 0.08520648 0.15798987 0.027359452
0002d0 d5 19 1a 3e f8 0c 55 3b 8f bf c5 3d 40 25 c1 3d
       0.15048917 0.003250895 0.096556775 0.09430933
0002e0 ff 3d 0e 3d 30 76 05 3e 55 56 f8 3d 1c 3e 27 3e
       0.034727093 0.13033366 0.121258415 0.16332287
0002f0 91 b0 c3 3c 2d 59 18 bc 04 14 2f 3e 88 3f c0 3d
       0.023887904 -0.009298605 0.17097479 0.093871176
000300 cf c2 1d 3d cd 48 36 3d 9f be 9d 3d 8d b6 39 3d
       0.038515862 0.044503022 0.07702374 0.04534011
000310 6f 54 e5 3c 96 e5 14 3e 40 db 63 3d 4d 75 db 3c
       0.027994363 0.14540705 0.055629015 0.026789332
000320 73 07 b6 3d 61 25 b5 bb 2e f7 0d 3e 11 3a ac 3d
       0.088881396 -0.0055281376 0.13863823 0.08409513
000330 d4 29 3c 3d 64 5d 17 3e 32 80 b7 3d b9 0d 0d 3e
       0.045938328 0.1478172 0.08959998 0.13774766
000340 62 1d 11 3e 37 3a ec 3d 4a ee 94 3d 64 5d 14 3e
       0.14171365 0.11534541 0.072720125 0.1448875
000350 e9 e3 65 bc d1 57 b1 bb 58 79 1f 3e f4 e9 02 3e
       -0.014031389 -0.00541208 0.15573633 0.12784559
000360 ec 56 ef 3d c4 78 0a 3e a0 3e 0d 3e 04 64 f1 3d
       0.11686501 0.13522631 0.13793421 0.117866546
000370 0b fb 73 3d b3 b2 51 bc be 75 3b 3e b7 92 15 3e
       0.059565585 -0.012798953 0.18306634 0.14606749
000380 a4 ce ab bc 86 c6 4f bb 82 e3 a1 3c b5 92 8d 3d
       -0.020972557 -0.0031704023 0.019761804 0.06912748
000390 35 24 a4 3d 9f 7b 36 3d 8d bf 3f 3d 1c 4b 01 3d
       0.080147184 0.044551488 0.046813536 0.03156577
0003a0 2f 34 14 bb 55 50 f4 3d f4 05 ad 3c 31 ca 78 3d
       -0.0022614112 0.119293846 0.021121003 0.0607397
0003b0 c4 41 cf 3d 10 85 35 3e 5e a8 fe 3d 58 e3 a2 3d
       0.10119966 0.1772654 0.12434457 0.07953519
0003c0 e8 69 33 3e e0 60 4e 3d 15 26 4f 3d ab d9 1a 3e
       0.17520869 0.050385356 0.050573427 0.15122096
0003d0 54 cf a7 3b c7 2c 02 3e f6 ae ce 3d 77 a7 e5 3d
       0.005121151 0.12712394 0.10091965 0.11213582
0003e0 94 a2 fa 3a c2 b4 2d 3e 1a 35 5b 3d 80 34 b2 3d
       0.0019121938 0.16963485 0.05351744 0.0870142
0003f0 28 f2 d0 3b 7f 92 bf 3d 5d a7 1b 3c 79 07 06 3e
       0.0063765235 0.09354114 0.009500352 0.13088788

fc2.weight f4 [14, 512]
000000 55 c9 93 bc 0e 21 bb bd 8d c8 02 3e 7e b9 a1 3d
       -0.018040339 -0.09137164 0.12771817 0.07896708
000010 b8 d7 a4 bd 2c fd 90 3b 95 af f9 3d 32 bb a2 bd
       -0.080489576 0.0044247117 0.12191693 -0.07945861
000020 0d 53 b3 3d fb 18 90 bd 08 0f 04 be d4 72 7d 3d
       0.08756075 -0.07036015 -0.12896359 0.061877087
000030 f8 c9 c1 bd 53 4e bd 3d 6a 51 e2 bd ce 0d e7 3c
       -0.094623506 0.09243455 -0.11050685 0.028204825
000040 9e de 0e be 9f e2 e0 bd 94 ec 54 3d b7 23 af bd
       -0.13952109 -0.109807245 0.05198343 -0.08551734
000050 cf 3f ff bd 9b 77 ae bd 09 23 ad bd df ab cc bd
       -0.124633424 -0.08518907 -0.08453948 -0.09993719
000060 69 9b d3 3d 33 17 dd bd 29 82 a8 3b 3f b0 70 bd
       0.103323765 -0.107954405 0.0051424694 -0.05876183
000070 9d d9 f5 3d f6 e9 03 be 20 54 d5 bd 4d fe c1 3d
       0.12004397 -0.12882218 -0.10416436 0.09472332
000080 fa 62 09 be 38 34 ec 3d 90 48 9b 3d 2a a0 88 bd
       -0.13416663 0.115333974 0.075821996 -0.06671174
000090 69 49 a7 bd d4 e0 8f 3d 9f 29 0c be 9b 95 82 bd
       -0.08168299 0.070253044 -0.13687752 -0.06376191
0000a0 21 b6 fa bd 5a dc 03 be 90 36 af 3c 3f d1 7b bd
       -0.122417696 -0.12877026 0.021388322 -0.06147885
0000b0 00 fc 9f bd f5 90 86 bd 8f 5f 4f 3b 8a 73 1a be
       -0.07811737 -0.06570617 0.003164265 -0.15083137
0000c0 9f e8 e6 3d 43 09 6c 3d 36 dc e9 3d 70 8d 25 3d
       0.11274838 0.05762602 0.11418955 0.04041809
0000d0 92 d2 a4 3d 03 2e 13 be 82 08 1a be 48 cd 42 bd
       0.080479756 -0.14373021 -0.15042308 -0.047559053
0000e0 e2 32 e4 bd 78 75 2d bd 28 a0 e0 3d 96 3b 7e bd
       -0.111425176 -0.042348355 0.109680474 -0.062068544
0000f0 51 aa 9a 3d ed 9d c3 3d 8a a8 b1 bd 01 b2 88 3d
       0.075520165 0.09551606 -0.086747244 0.066745766
000100 ca ca 05 3c bb 3f 83 3d 4a f4 08 be 54 fc c0 3d
       0.008166024 0.0640864 -0.13374439 0.09423128
000110 52 58 90 3d 5a fc dd bd 5d 26 5c bd 9d 7e bf 3d
       0.07048096 -0.10839148 -0.053747524 0.093503214
000120 90 b2 bd 3c b2 18 94 3c 40 8a 43 3c 05 7b de bd
       0.023156434 0.018078182 0.011934817 -0.10863308
000130 5a ca 8b bd fd 2a 85 3d 9e d0 0e be 78 cf e5 3c
       -0.06825705 0.0650234 -0.13946769 0.02805303
000140 fa 61 e3 3d d7 39 96 3d 62 7c 00 3e 47 af 62 bd
       0.11102672 0.07335251 0.12547448 -0.05534294
000150 d8 ad aa 3d b7 89 60 3d 4a e4 a3 3d 15 e5 e9 bd
       0.08333939 0.054818835 0.08002527 -0.11420647
000160 b0 bd e3 bd 8d 6b d4 bd 8e fb 03 3e 11 77 be 3c
       -0.111201644 -0.10372076 0.12888929 0.023250135
000170 75 43 4d bd 07 72 10 be ae 75 fe bd d9 97 38 bb
       -0.05011316 -0.14105998 -0.12424789 -0.002816668
000180 c7 1a 87 bc 4c 6b f7 bd 30 27 53 3d cb f1 86 bd
       -0.01649226 -0.12081012 0.051551044 -0.06589087
000190 ea 2b 10 3d ac d9 08 be 85 5d cd 3d 9a 1c c7 3d
       0.03519813 -0.13364285 0.10027603 0.09722252
0001a0 44 29 f5 bd 26 a6 f1 3d ab e1 e3 bd df 48 2c bd
       -0.119707614 0.117992684 -0.11127027 -0.042061683
0001b0 33 25 a7 bd 1e 06 d6 3d 62 61 d0 3d 50 52 d7 bd
       -0.08161392 0.104503855 0.10174824 -0.10513747
0001c0 06 28 b9 3d 54 1b ac 3d c9 c4 b8 bd 8a 4d 02 3e
       0.09040837 0.0840365 -0.09021909 0.12724891
0001d0 2c 68 8d bd c9 c9 a4 bd d0 b5 bd 3d 29 46 ac 3d
       -0.06904635 -0.080463 0.092631936 0.084118195
0001e0 52 67 31 3c bc db 06 3d a4 36 d9 3d 01 8d 76 bd
       0.010827856 0.0329244 0.10606125 -0.060193066
0001f0 58 eb cf bd 56 db af bd 49 9d 28 3d ea fa 74 bd
       -0.1015231 -0.08586757 0.041165624 -0.059809603
000200 00 bb be 3d 39 88 00 be eb a9 84 3b 8f ad 19 3d
       0.09313011 -0.12551965 0.004048576 0.037519034
000210 0f 0c a7 3b 56 b9 ba 3d ec e1 93 bb c5 1a 03 be
       0.005097873 0.09117381 -0.004513016 -0.1280318
000220 2c 6e e7 bd 5b 83 d6 3b 7b de f1 3c 70 dd 0f be
       -0.113003105 0.0065464205 0.029525032 -0.14049315
000230 ff f0 22 3d a5 0a cc bd a0 48 d3 3d bf e9 e8 bd
       0.039780613 -0.09962968 0.103165865 -0.113727085
000240 48 bc 2b bd 11 7b 07 be 50 53 90 bd 1d 1e da bd
       -0.041927606 -0.1323054 -0.070471406 -0.10650275
000250 92 e7 83 3c 7a 28 9f bd 05 bc ba 3b 93 ed b5 bd
       0.016101632 -0.07771392 0.005698683 -0.08883204
000260 9d a0 e4 bd 9d 09 8d 3d 5a f6 12 be 04 9f 83 bc
       -0.11163447 0.06886599 -0.14351788 -0.016067035
000270 c3 08 a3 3d c1 a9 0c be 3a 11 ec bd 20 41 0d be
       0.079606555 -0.13736631 -0.11526723 -0.13794374
000280 aa f6 e6 3d 50 cf a0 bd a0 f8 66 bd 57 13 b8 bc
       0.11277516 -0.07852042 -0.05638945 -0.02247016
000290 6a 9c b8 3d 62 3b f0 bd 66 9e b5 3d cb 44 b7 bd
       0.090142086 -0.117300764 0.08868103 -0.08948668
0002a0 17 15 df bd 70 dc f6 3c 1a 08 fa bd b4 42 be bd
       -0.108926944 0.03013441 -0.122085765 -0.09290066
0002b0 3f 05 53 bd c7 64 6c bd 36 de a1 3d 62 17 b8 3d
       -0.051518675 -0.057713296 0.079037115 0.08988835
0002c0 a1 2b 3c bd 1d 3d b2 bd 8d c1 de 3d 3a f9 e5 3d
       -0.045940045 -0.08703063 0.10876761 0.11229177
0002d0 db 05 e9 bd 11 7d 44 3c 2b ed 16 be d5 d0 e0 3d
       -0.1137807 0.011992709 -0.1473891 0.109773315
0002e0 45 4a 4a bc 5a 61 f8 bd 01 3a 91 bd 4c 7a d1 3b
       -0.012346809 -0.12127943 -0.070911415 0.0063927528
0002f0 f0 ea d0 bd 2a 90 eb bd 53 8d ab 3d 75 f9 69 3d
       -0.10201061 -0.115021065 0.08376565 0.057122666
000300 00 25 54 3d 1d fe cc bd 59 2c a2 bd 84 bd 4e bb
       0.0517931 -0.10009406 -0.07918615 -0.0031546066
000310 e3 aa a3 3d b6 f0 04 be 1f 78 b6 3d 50 b8 e5 3d
       0.079915784 -0.12982449 0.0890963 0.112167954
000320 75 c4 33 be 07 32 f3 bd a2 25 ad bd f4 40 7a bc
       -0.17555411 -0.11874776 -0.084544435 -0.015274275
000330 16 dd cc 3d a5 bd cf bd ac 5c 71 3d 86 1f 84 3d
       0.10003106 -0.10143594 0.05892627 0.06451325
000340 5e af 03 be 78 b9 70 bd 3e 09 bb bd d3 42 95 3d
       -0.12859866 -0.058770627 -0.09132622 0.07288136
000350 d0 a6 ac bd d1 0c d9 bd 54 2a 02 be 8b f3 78 bd
       -0.084302545 -0.10598148 -0.1271146 -0.060779136
000360 3d 0e ce bd 5d 84 00 be 1c 97 3b 3c 74 41 98 3d
       -0.100613095 -0.12550493 0.0114496015 0.07434359
000370 e8 19 ed bd ff b7 ba bc a3 00 f5 bd bc 9d 9c 3d
       -0.11577207 -0.022792814 -0.11963012 0.07647273
000380 10 fc 9c 3d ef 8a b3 bd 7b 28 f8 bd 29 cd e8 bd
       0.076652646 -0.08766734 -0.12117096 -0.11367256
000390 e9 b3 e8 bd 36 5d c7 bd 61 e2 20 be 47 bc aa 3d
       -0.1136244 -0.097345755 -0.15711357 0.08336692
0003a0 c2 5a 06 be 76 dd 76 bd 12 25 30 bd c6 6e c3 bd
       -0.13120559 -0.060269795 -0.043004103 -0.09542613
0003b0 07 69 77 3d 4f ad 82 3d 6f 5b 0f be bf ae c9 3d
       0.060402896 0.06380712 -0.13999723 0.09847783
0003c0 e2 b2 f7 bd 3d de 9e 3d ef 94 c8 3d 8b 33 d1 3d
       -0.12094666 0.07757232 0.09794032 0.10214909
0003d0 49 de c9 bd 49 57 b7 3d 0e 99 d7 bd c4 8f 83 3d
       -0.09856851 0.08952195 -0.1052724 0.064239055
0003e0 04 0b b6 3d d4 fa 0e bd d4 06 f1 3d 38 03 e4 3d
       0.0888882 -0.034907177 0.117688805 0.111334264
0003f0 e1 5d 97 3d c3 b9 91 3d a9 aa f2 bd 66 47 d8 3c
       0.07390953 0.07115509 -0.11848957 0.026401233

fc2.bias f4 [14]
000000 92 80 01 bd 60 6d 4a bc 1d c5 eb bc ba b3 6b bd
       -0.031616755 -0.012355179 -0.028780514 -0.057544447
000010 bc 1e 07 3e b0 b4 dd 3d ed 08 aa 3c 43 c6 0c be
       0.13195318 0.10825479 0.02075621 -0.13747506
000020 f4 4f 68 bd 25 67 41 bd 06 87 3c 3d 9d 96 b5 bd
       -0.056716874 -0.047217507 0.046027206 -0.08866618
000030 ef ab 94 3d 8d 24 90 bd
       0.07259356 -0.070382215
