nlp_chatbot/saved_model/model.pth (torch, 237833 bytes, 4 tensors)

fc1.weight f4 [512, 100]
00000000: d53e ee3c aa94 003e 4d5a 81bc 65cb 35bd
00000010: 896c d73d ede9 203e 4651 e73d 0537 993d
00000020: 5022 1cbe f10b fa3d d971 dbbc d966 053d
00000030: 48b2 a33d 327e f53d e475 4cbe 85b8 1abc
00000040: 1f3d 6abd 07f2 553e 9f65 45be 0b93 5cbe
00000050: e5a0 a93d 5d29 91bc 4c26 ef3d b286 563e
00000060: a682 973d 3316 95bd 76ce 51be 4801 463d
00000070: de3a 4abe a5ec 7abe 0525 e23c 255c 5abe
00000080: eaf3 433b a0f9 dabb 0273 263c b500 153e
00000090: 4ccd 51be 2773 833e 6f15 9dbb 96a4 943d
000000a0: 9b47 9a3d 264f b43c e5cd 823e 40c6 473e
000000b0: 1898 333e ced6 f83d 894a 083d 0f4e 813d
000000c0: c8be 91ba 5ea6 023e 9fb0 ef3d a1c1 45ba
000000d0: c614 0d3d 7424 ebbd 0505 973d a2cb 57bd
000000e0: b6f5 103d 0d6f 273e 6eab dc3d 14d8 ca3d
000000f0: dca2 053d 8d83 39bd cbbc 0fbd a4ba a73d
00000100: 03ee b33d 4d41 1f3e c822 93bd 5ee8 343e
00000110: d69e 103e 825d 17be 26f0 c13b 089e 653e
00000120: c815 b7bc 3598 213e 1121 bbbd 4b9f 113e
00000130: 6eef 2e3e 77fc a3bd 40f3 bfbc 5825 43be
00000140: 1375 77be e26b 713d 2af5 16be 76a2 263e
00000150: 5306 133e a0a7 70bc d6b1 23bd 7092 233d
00000160: 01d2 1abe 004a 9fbd 0675 f4bc 92d0 0d3e
00000170: 0ab2 e93c 692a f0bd 833b bf3d 152e aebd
00000180: 1d1e 393d 0659 a63d 1782 78bc 8b72 06bc
00000190: 7b77 1fbd e271 713d 00f6 96bd 0840 983c
000001a0: a04b 263e a850 86bc 32cb 77bb 740a 68bd
000001b0: 58a6 7e3c e760 e1bd 916f 3abe 1984 4e3e
000001c0: a072 50bd 1e5a 143c 3fa2 a8bd 54fc 0d3d
000001d0: b98e f1bc 87db 1b3e c148 27bd f2a1 b2bd
000001e0: 041e 4cbe 06fd 83bd 47ef b53d 2360 34be
000001f0: 6419 a4bd f06b 4bbd bbbf bbbd dcb2 dd3c
00000200: 751c 49be c710 5e3e 9fdb b6bd ffba 93ba
00000210: 9f05 10be 2e30 ba3c c5bf 02be fc5f 073e
00000220: 97bf bbbd fc26 813e 5a53 093d 7582 043e
00000230: 0aef 1dbd 9f8f 9b3d 2eec 203e 363c ba3d
00000240: a99f 543e 5d00 b23c 8fc6 97bd da56 173d
00000250: 300f 1d3c 76ba 9dbd ee23 3c3d 58e5 a5bc
00000260: e66a 02bd 6e18 9f3d 29c7 023e a3bb 6bbe
00000270: 57b1 183d 6a3b a1bd 7204 da3d 51a2 203e
00000280: 536e db3d 8df4 88bd 653e 0cbd 8c80 86bd
00000290: fdad f33c d036 9fbd 8024 373c 563b 553e
000002a0: a0b0 f83b c161 dd3c 8a7f 93bd 3b04 683e
000002b0: 3989 b23d 7f2b 52bc be3b 8bbd 076f e13d
000002c0: 0d83 563e 6787 183e 4dcc 463d 8fcf b9bd
000002d0: c681 293e 201d f0bc f00b 7fbd a665 d33d
000002e0: 6184 023e 8be2 263e 6e85 b6bd 17ae 8c3d
000002f0: 2a91 023d deaf 173d 3624 8cbd cd35 5b3e
00000300: 8efd fa3d d237 90bd 5343 403e 187c 8f3d
00000310: 40d0 f5bc d91e 893d ad59 63bd e187 a5bd
00000320: 402e d03d b47f 67bd cda6 8d3d 0dce d4bd
00000330: d1e5 b93d 9416 2d3e 27a7 14be 5a80 c93d
00000340: c8f6 cd3d b5c5 553e cc87 8d3b e860 153e
00000350: 718b 90bd eb0e 0f3d 8cab 1cbe 52c4 2cbc
00000360: 6998 febd 7742 f1bd a200 c2bd 0612 1fbe
00000370: 4b3c 79bd d63e acbc 164e 08bd 3b69 3cbe
00000380: 76b3 8abc c148 aebd 6aab 1cbe e517 963d
00000390: 882a 7d3d 623e f1bd cafe 193d 5daf 753c
000003a0: 4d8d 11be 036b 143d f91d 5a3e 1d7b 0bbd
000003b0: 75ab 1cbe 982a 573e d7c8 1d3e 6bc9 1c3e
000003c0: f69b f8ba f183 273e 1bdb bf3d d7e3 d93d
000003d0: b716 0f3e bd5f 10bd 321c 80bd 0e6c c1bc
000003e0: 58a3 afbd 9070 593c 691a 763d 7ae8 dabd
000003f0: b643 723d 3a42 3c3e 8a81 273e f935 62bd
0.029082695 0.12556711 -0.01579013 -0.044383425 0.10518748 0.15714236 0.112947986 0.07481197
-0.15247464 0.12209309 -0.026787685 0.032568786 0.07992989 0.119869605 -0.19966847 -0.009443407
-0.057187196 0.20893107 -0.19277047 -0.21540467 0.08282641 -0.017719919 0.116772264 0.2094982
0.07397966 -0.07279625 -0.20488915 0.048341066 -0.19749019 -0.24504335 0.027605543 -0.21324213
0.0029900023 -0.0066825897 0.010159256 0.14551051 -0.20488471 0.25673792 -0.004793815 0.07257955
0.07533189 0.022010397 0.2554771 0.1950922 0.17538488 0.12150346 0.033274207 0.063137166
-0.0011119479 0.12758777 0.1170361 -0.00075438066 0.03444364 -0.11481562 0.07374004 -0.052684434
0.03539058 0.16350956 0.10774885 0.09904495 0.032626018 -0.045291472 -0.035092156 0.08189896
0.087856315 0.15552254 -0.07184368 0.17666766 0.14123091 -0.14781764 0.0059185205 0.22423565
-0.022349253 0.15780719 -0.09137166 0.14220922 0.17083523 -0.08007138 -0.02343142 -0.19057214
-0.24165754 0.058940776 -0.1474196 0.16272911 0.14357881 -0.014688402 -0.03996452 0.039934576
-0.15119173 -0.07777786 -0.029840957 0.13849095 0.028527278 -0.11726839 0.09337523 -0.08504883
0.045194734 0.081224486 -0.015167735 -0.00820602 -0.038932305 0.058946498 -0.073711395 0.01858522
0.16239786 -0.016395882 -0.0037810323 -0.056650594 0.015542589 -0.11004811 -0.18206622 0.20167579
-0.050890565 0.009054689 -0.08234071 0.034664467 -0.029487 0.15220462 -0.040840868 -0.08722295
-0.19933325 -0.06444745 0.08883529 -0.17614798 -0.080126554 -0.049663484 -0.09167429 0.027062826
-0.19639762 0.21686088 -0.08928608 -0.0011270939 -0.14064644 0.022728052 -0.12768467 0.13220209
-0.09167402 0.25225055 0.033526756 0.1294039 -0.038558044 0.07595753 0.15715095 0.090935156
0.2076403 0.021728689 -0.07410919 0.036948062 0.0095861405 -0.0770158 0.045932703 -0.020250961
-0.031840228 0.077683315 0.12771286 -0.23020796 0.0372785 -0.078726605 0.10645379 0.15686919
0.10714402 -0.06687269 -0.03423919 -0.06567487 0.02974605 -0.077741265 0.011178136 0.20823416
0.0075894147 0.027024152 -0.072020605 0.22657864 0.087175794 -0.012827753 -0.06798504 0.11007505
0.2094843 0.14895402 0.04853468 -0.09072792 0.16553411 -0.029310763 -0.062267244 0.10322122
0.12745811 0.16297357 -0.089121684 0.068691425 0.03187672 0.037032954 -0.06842844 0.21407242
0.12255393 -0.07041897 0.18775682 0.07006091 -0.030006528 0.06695337 -0.055505443 -0.080825575
0.101650715 -0.05651827 0.0691658 -0.103908636 0.09077037 0.16903144 -0.14516889 0.09838934
0.100568354 0.208762 0.0043191668 0.14587748 -0.07057846 0.034926336 -0.15299815 -0.010544853
-0.12431414 -0.11780255 -0.09472777 -0.15534219 -0.060848515 -0.021026056 -0.033277594 -0.18399517
-0.016931277 -0.085099705 -0.15299764 0.07328776 0.06180814 -0.11779477 0.0375965 0.014995423
-0.14214058 0.036234867 0.21300496 -0.034052957 -0.1529978 0.21012342 0.15408646 0.1531121
-0.0018967378 0.16358925 0.09367963 0.1063916 0.13973509 -0.035247553 -0.06255378 -0.023611095
-0.08576077 0.013271466 0.06008378 -0.10688873 0.059146605 0.18384638 0.16358009 -0.055227254

fc1.bias f4 [512]
00000000: a0cd 513e 4dc0 bb3d 87ab 1c3e 3cfb ec3d
00000010: 5765 303e 0eea 8a3d c751 333d 7023 f13d
00000020: 8ab6 5e3e 9d7e 193d 99b3 3b3d 6bec c03d
00000030: 8c37 d33d 2383 1b3e 9862 613d 8fd2 333e
00000040: e208 673e b789 ea3d 2f2a ee3d 95be 363c
00000050: f920 723d 072c 643e e423 993d 9305 ff3d
00000060: baca 2a3e 040a 993d e49b 4e3d 3251 1c3e
00000070: 4d4d 1d3e 4db3 bf3d cc14 4d3e a816 4b3d
00000080: 4f5e 1e3e 7e3d 1d3e 0afd 943d a5c3 cd3d
00000090: 27b1 183e 35f7 283d a439 203e f734 ea3c
000000a0: 5fd8 473e b64e 593e c0ce 723e 012e c53d
000000b0: 9b9f 9f3d 0a15 4e3e 270d 0a3e a05b 123e
000000c0: 5f00 1b3e 6906 023e dec2 c93d aa6e c93c
000000d0: 7b83 873d 095d 8f3d 1e66 363e ffba 533d
000000e0: 052b 733d 85ea 0d3e 624a 573e cbb8 e53c
000000f0: 2415 e03d fdb3 463e bcb7 493d 69de 693d
00000100: e181 553e d98e f33d 7121 0b3e 3cd1 1d3e
00000110: a4c7 583e 70e7 f83c b709 873d f832 f83d
00000120: 1ab8 893d 2984 273e 45db 193e 2c08 6c3e
00000130: c4cd 953d b6cf 9b3d db3a c73d 229d 493e
00000140: 7ee4 993d b45d 683d 89ab b13d 91f7 e03d
00000150: b5fb 3e3d 44d2 943d c026 ae3d a344 4c3e
00000160: 4727 153e 8dab b63d 674c 0f3e 51b2 253e
00000170: e29d 763e 6d68 673d e6a6 283e 5370 383e
00000180: a619 ad3d 2df5 a33d d026 d03d e5c1 483e
00000190: cf5b d13d b90d 213e acce 063e 8a1c 2b3d
000001a0: ce04 9c3d ac20 d53d 0b6d 2e3e 3b96 733e
000001b0: 7f06 2a3e 6fce c23d 3629 573d 0424 9d3d
000001c0: 2db1 f43d 1741 173d 9094 333e 3df8 583e
000001d0: 92fd 953d 0067 213e 710e 693d 0efe b43d
000001e0: dba5 bb3d c568 f73d 656a 223e 40d4 8b3d
000001f0: 7559 ef3d c5ed de3d 1f45 8e3d cf46 5f3d
00000200: 28e5 ad3d 0c17 cd3d 7669 0f3e 9b0e bb3d
00000210: 2d1a de3c bd69 2c3e 26ce 743d d5dc 4a3e
00000220: 5d7a ff3d 9951 013e 82ed 2e3d 2612 ac3d
00000230: 7cf4 d63d 3c9f 283e e6d3 c03d 3e06 de3d
00000240: ff2e 003e 050e 223e 3e8f 033e aab9 3a3d
00000250: 18a9 363e ad95 fa3c ef9a 123e a2d1 803d
00000260: 34b6 263e 6781 5f3d 6f81 1d3e 14ad f4ba
00000270: c92e da3d 8aa8 573d f766 aa3d 9a89 143d
00000280: e71e e83d a8bb 163e fe1a 433e f19f 1c3e
00000290: 9524 7d3d 0137 033e b05b 693e 1427 5c3e
000002a0: 2c35 273e 9430 aa3d 7097 bf3d 289b 243e
000002b0: 1a92 053e 71a4 5b3e fb7b b73d 4b77 343e
000002c0: dc15 103e ae9b 493e b7d7 233e 79f5 253e
000002d0: 7010 253e 5c8c 973d c801 503e 7ad6 183e
000002e0: 8f79 ca3d 8b45 583e 2736 493e 44e5 333d
000002f0: f389 223e d47d fd3d c177 1d3e ffd9 483e
00000300: 1016 fc3c 686f 2e3d 1c00 9c3d 0d8f 123e
00000310: 710f 293e e9cf d03d 35d9 f73d 7814 143e
00000320: 635d b33d 724b c93d c52b 7f3d 2c0f 063e
00000330: a110 d83d 9afc d03d 68c8 ab3d 4c6a 613e
00000340: f15c 773e e0a8 f13d 60d6 623e c103 ee3d
00000350: dac6 553e 56b4 3d3e e9bb 203e 5cb7 f53d
00000360: ed3c a63d f2cc 183e 4fdc c13d c6d4 cf3c
00000370: e0d1 d23c bd49 953b cfd0 b03d 87af 273e
00000380: 142d 523c 4421 413e 2588 2f3e 1e6b 2b3e
00000390: 25ea 763d 6ed6 983d 2cb9 d43d 62a6 a53d
000003a0: 645d 9f3d ac04 053e c6f3 d43d 6ea1 4e3e
000003b0: e40a 273e d19a 6c3d 2cd5 313e f4fd b33d
000003c0: 0a47 ae3c 1598 1b3e 50b7 463d f88c a33d
000003d0: b235 113d 90cf 523d f5f4 173e 01db 6e3d
000003e0: 9560 073d 0c69 833d 1e2f 353e 76b3 5f3e
000003f0: 6748 883d e169 063e 9279 f53d 1a44 463d
0.20488596 0.09167538 0.15299807 0.11571357 0.17226158 0.06782924 0.04377916 0.11774337
0.2174932 0.037474263 0.045825575 0.09420093 0.10313329 0.15186743 0.055025667 0.1756079
0.22561982 0.11452048 0.1162914 0.011153837 0.059113476 0.2228242 0.07477549 0.12452235
0.16678897 0.074726135 0.050441638 0.15265349 0.15361519 0.09360371 0.20027465 0.049582154
0.15465663 0.15355489 0.07274826 0.10047082 0.14911328 0.04125138 0.15646988 0.028589709
0.19516133 0.21221432 0.23711681 0.09627915 0.07794114 0.20125213 0.1348158 0.14292765
0.1513686 0.12697758 0.09851621 0.024588902 0.06616875 0.07000167 0.17812392 0.051692005
0.0593672 0.13858993 0.21024469 0.028042218 0.10941532 0.19404598 0.04924749 0.057096872
0.20850326 0.118924804 0.13586976 0.15411848 0.21169907 0.030383795 0.0659365 0.121190965
0.06724568 0.16359009 0.15025051 0.23049992 0.07314637 0.07607977 0.09728023 0.19688848
0.075142846 0.056729987 0.08675296 0.109847195 0.046626765 0.072666675 0.08503485 0.19948058
0.14565764 0.089194395 0.13993989 0.16181304 0.24083665 0.056496073 0.16469917 0.18011598
0.08452158 0.08005748 0.10163653 0.19605215 0.10222589 0.15727891 0.13164777 0.041775264
0.07618104 0.10406622 0.17033784 0.23787777 0.1660404 0.0951203 0.052529536 0.07672885
0.11947856 0.03692731 0.17537141 0.21188445 0.07323755 0.15761948 0.056898538 0.088375196
0.09162494 0.1208053 0.15860899 0.06827593 0.116869844 0.10885195 0.069467776 0.054510888
0.08490974 0.100141615 0.14005074 0.09133645 0.027112091 0.16837211 0.05976691 0.19810803
0.12474511 0.12628783 0.042706974 0.08401899 0.104958504 0.16466993 0.094154164 0.10841034
0.12517928 0.1582566 0.12847611 0.04558722 0.17837942 0.03058895 0.14316915 0.06289984
0.16280442 0.054566767 0.15381406 -0.0018667304 0.10653455 0.052650966 0.0832042 0.03626404
0.11334019 0.14720023 0.19053265 0.15295388 0.061802465 0.12813951 0.22788882 0.21499282
0.16328877 0.08310047 0.09355056 0.16074812 0.13044015 0.21449448 0.08959194 0.17623632
0.14070839 0.19688293 0.16000257 0.16206922 0.16119552 0.07399818 0.2031318 0.14925566
0.09886467 0.21120279 0.19649564 0.043919817 0.15872936 0.123775154 0.15377714 0.19614409
0.030772239 0.042586714 0.07617208 0.14312382 0.16509797 0.10195906 0.12101976 0.14460933
0.087580465 0.09828843 0.0622976 0.13091725 0.10550047 0.1020443 0.08387834 0.22013205
0.24156548 0.117997885 0.2215209 0.1162181 0.20876637 0.18525824 0.15696682 0.11997864
0.081170894 0.1492193 0.09465849 0.025370013 0.025734842 0.0045559094 0.08633577 0.16375552
0.01282813 0.18860346 0.17141779 0.1674008 0.06028189 0.07462774 0.10386881 0.08088376
0.07781485 0.12990063 0.103980586 0.20178768 0.16312748 0.057764832 0.17366475 0.08788672
0.021274108 0.15194733 0.048514664 0.07985872 0.0354516 0.05146748 0.14839537 0.058314327
0.033051092 0.064165205 0.17693755 0.21845803 0.06654435 0.13126327 0.11986078 0.04840479

fc2.weight f4 [14, 512]
00000000: 0c83 cb3d 274a bc3d df71 07be 3f7f 2abe
00000010: f33d 913d 8f9d 433d bed4 2ebe d0c7 143e
00000020: 6f82 173e 6de1 bc3d 673d 17be 362c 0abe
00000030: 2ae6 333d 0816 18be 427e 013e 2321 763d
00000040: 21d5 37be 435c 57be 96f7 f6bd 2773 62bd
00000050: daf3 083e 3bbb 1ebe 28a7 17be 81aa fdbd
00000060: 423a 1bbe cf23 2dbe 617f df3d e9e8 203e
00000070: 7572 37be 52c4 183e 9493 fa3d 3721 4ebe
00000080: 4bf1 273e 8b76 fabd ef38 9cbd c480 d33d
00000090: 97bd a33d 9788 06be 4642 0fbe 6fbf b33d
000000a0: 39fd 06be 3e14 2fbe a3a4 13be 7107 febd
000000b0: 5261 223e 418a 40be d14d 02be 0b7b debc
000000c0: 50e5 17be 78d1 42be 6432 1e3e 04ca 053e
000000d0: f15c 1ebe 1496 353e 0ffe 10be 1f77 38be
000000e0: 6dd0 d93d 75c2 28be 5d75 fabd 1418 0f3e
000000f0: 1835 9b3d 502e 2f3c 5e75 1abe 889d ac3d
00000100: d2c4 14be c222 1cbe 7831 2c3e eecb ff3d
00000110: 1d48 28be 62f1 b73d 2a18 203e f43b da3d
00000120: 7edc 50be 0b94 f43d 14ac 033e fe1a c2bd
00000130: eed3 133e ed40 f3bd addc 2abe 81af da3d
00000140: 29a0 893d 9e8b 12be 2abb 61be 1c46 2f3e
00000150: 7f3c 0b3e ae54 2dbe ab8b cfbd fd29 26be
00000160: d454 1abe af18 2bbe 6b6f df3d f117 8c3d
00000170: b80a de3d 3fa6 103e 0ec4 143e 5499 25be
00000180: 1afe dc3d db84 81be ebdb 493e ffcb 25be
00000190: 6b00 fb3d c05b 1e3e e035 4bbe 7cd4 54be
000001a0: 4d27 193e aaf3 063e 3d68 29be e3fd f03d
000001b0: 1c0e 15be 4d9f e73d 0f49 38be 42f5 e93d
000001c0: bf75 d93d 491b 2cbe eaef e2bd e838 29be
000001d0: 3800 3abe fc25 5a3d ec15 5abe 5dff 633d
000001e0: 93bb 323e 1f25 203e f38d febd 6cf4 1abe
000001f0: e651 4ebd 5037 41be 0abe 1ebe a8b8 f1bd
00000200: f7e0 b5bd d1b5 f93d ef3c ebbd 9723 76bd
00000210: e32c d2bc 11e7 b03d 7554 5abd 2477 873d
00000220: 347a f73d 1766 be3d 17f1 22be a236 15be
00000230: eb99 0ebd 0ba7 3abe 9038 f33d 38cc 153e
00000240: 7799 d33d bad5 42be e786 deb9 21e0 34be
00000250: 5e90 31be c959 f83d 9d5e 33be 5c39 3fbe
00000260: 7515 f63d db2f 4abe 1333 5bbd 47ea 1fbe
00000270: a934 143e f98c b9bd 7260 c1bd 05f6 3abe
00000280: 78b2 45be 718f 243b bce4 fd3d 704f c6bd
00000290: 7eeb 70be 68b6 08be 7f0b e7bd c610 44be
000002a0: 12ca 76bd 084f 30be f3f1 fdbd 38ca 20be
000002b0: 8601 3ebe 3fd0 1ebe e9c2 033e 7233 16be
000002c0: e375 0abe a983 0c3e af26 e5bd fba0 06be
000002d0: 1706 243e cb48 ba3d 0cc7 dbbd 545f 953d
000002e0: 7a90 64be 4d73 efbd 25b8 bd3d 95e9 393e
000002f0: e97a 04be 410a ee3d 096c c4bd dda8 15be
00000300: 5bca 73bd abb2 e33d b24c 6a3d 1497 173e
00000310: 232d fc3d d4d0 4cbe 2c6a 49be 89a4 153e
00000320: 3e95 49be 5ca0 ae3d 334a 143e 9061 ef3d
00000330: 9219 f6bd 31f6 22be 3634 58be 8f1c 04be
00000340: 6fc0 2bbe 1d5b d7bd 9c77 23be e817 83bd
00000350: d778 ec3d d1b7 203e d79a 093e 481a 3fbe
00000360: 120c a5bd 156b bebd ea80 32be 4651 bbbd
00000370: cf41 523c 1394 0bbe 3d8e 083e 994d 0bbe
00000380: 37a5 b9bd 509c 09be 9643 d13c 8107 5fbd
00000390: bc9e 1a3e 63fc f13d 4839 e6bd 88c7 8abc
000003a0: c9f2 2bbe 4393 393e aaed 3dbe 81f0 033e
000003b0: a866 aa3d 2e1c 8c3d 169c 38be 9c52 8cbe
000003c0: 0eb6 c23d 4329 78bd fc24 c13d 9582 38be
000003d0: dc2c db3d 7c6f 0f3e d102 05be 2a47 4bbe
000003e0: 5dd9 2f3e b977 f73d af7a 2e3c 1038 23be
000003f0: 41a5 36be fbff d93d 6e95 0a3e 3021 4fbe
0.099371046 0.09193831 -0.13227032 -0.16650103 0.07091894 0.04775768 -0.17073342 0.14529347
0.1479585 0.09222684 -0.14769517 -0.13493428 0.043920673 -0.14852154 0.1264582 0.060090195
-0.17952396 -0.21031289 -0.12058942 -0.0552856 0.13374272 -0.1550111 -0.14809859 -0.12386037
-0.15158942 -0.16908191 0.109129675 0.15713848 -0.17914756 0.1491864 0.122351795 -0.20129858
0.1640064 -0.122296415 -0.07628047 0.103272945 0.07995146 -0.13138042 -0.13990125 0.087767474
-0.13182534 -0.17097566 -0.14418273 -0.12403763 0.15857437 -0.1880274 -0.12724997 -0.02715828
-0.1483357 -0.19025218 0.1544891 0.13065344 -0.15465142 0.17733032 -0.14159416 -0.18014191
0.10635457 -0.1648043 -0.122294165 0.13974029 0.07578486 0.010692194 -0.15083835 0.08428484
-0.14528206 -0.15247634 0.16815746 0.124900684 -0.16433759 0.08981587 0.15634218 0.106559664
-0.20396611 0.119422995 0.12858611 -0.094778046 0.14436314 -0.11877618 -0.16685744 0.10678006
0.06720001 -0.14311072 -0.22044054 0.17116588 0.13597296 -0.16926834 -0.101340614 -0.16226955
-0.15071422 -0.16708635 0.10909923 0.06840504 0.10841888 0.14125918 0.14527914 -0.16171771
0.107906535 -0.25296673 0.19712798 -0.161911 0.12255939 0.15464687 -0.1984477 -0.20784181
0.14956398 0.13178888 -0.1654367 0.11767175 -0.14556164 0.11309681 -0.1799662 0.11423732
0.106181614 -0.16807283 -0.11080916 -0.16525614 -0.18164146 0.05325888 -0.21297425 0.055663455
0.17454366 0.1563916 -0.124294184 -0.15132302 -0.050371073 -0.18868756 -0.15502182 -0.118027985
-0.08880799 0.12192882 -0.114862315 -0.060092535 -0.02565617 0.086378224 -0.0533032 0.06614521
0.12083855 0.09296816 -0.15912281 -0.14571622 -0.034814756 -0.18227784 0.11876023 0.14628685
0.103320055 -0.19026843 -0.0004244365 -0.17663623 -0.17340228 0.121265 -0.17516561 -0.18674225
0.12015811 -0.19744818 -0.053515505 -0.15616713 0.14473213 -0.090600915 -0.094422236 -0.18257912
-0.19306362 0.0025109912 0.12397143 -0.0968312 -0.23527333 -0.13350832 -0.112814896 -0.19147024
-0.060251303 -0.17217648 -0.12399664 -0.1570214 -0.18555269 -0.15509127 0.12867321 -0.14668062
-0.13521533 0.137221 -0.11189019 -0.13147347 0.16017948 0.090959154 -0.107313246 0.07293573
-0.22320738 -0.11691914 0.092636384 0.1815551 -0.12937512 0.116230495 -0.095909186 -0.14615197
-0.059519153 0.111180626 0.05720205 0.14803725 0.12313297 -0.20001537 -0.19669408 0.14613546
-0.19685838 0.0852668 0.1448143 0.116885304 -0.12016596 -0.15914227 -0.21113667 -0.12901519
-0.16772626 -0.10515425 -0.15963596 -0.06401044 0.11546486 0.1569512 0.13437973 -0.18662369
-0.08058943 -0.09297768 -0.1743199 -0.09146361 0.012833073 -0.13630705 0.1333551 -0.1360382
-0.09064715 -0.13438535 0.025544923 -0.054450516 0.15099615 0.11815717 -0.11241394 -0.016940847
-0.16791834 0.18122582 -0.18547693 0.12884714 0.083203614 0.06841312 -0.18028292 -0.27406776
0.095073804 -0.060586225 0.09430882 -0.18018563 0.107019156 0.14007372 -0.12989356 -0.19851366
0.17172761 0.12083382 0.010649367 -0.15939355 -0.17836477 0.106445275 0.13533565 -0.20227504

fc2.bias f4 [14]
00000000: ca21 bcbd d973 d9bd 71ad 93bd 7439 68bd
00000010: bffb 383e 9823 b23d 64ae 89bc 6493 a9bd
00000020: cdb7 ebbd ecb2 85bd 4fac 8a3c 0303 f2bd
00000030: 0356 a23d b29f c4bd
-0.09186132 -0.10617799 -0.07210816 -0.056695417 0.18064784 0.08698195 -0.016806789 -0.08280066
-0.115096666 -0.06528267 0.016927866 -0.11816981 0.07926562 -0.09600772
