nlp_chatbot/saved_model/model.pth (torch, 237833 bytes, 4 tensors)

fc1.weight f4 [512, 100]
0	0x3d20df10	0.03927523
1	0xbc9d5559	-0.019205736
2	0xbe09e8ab	-0.13467662
3	0x3de46787	0.11152559
4	0x3b7ae53b	0.0038283605
5	0x3e3d6eec	0.18499345
6	0x3e25a04e	0.16174433
7	0x3db1036a	0.08643229
8	0xbe2f1f1e	-0.17101714
9	0x3e34d71c	0.17660183
10	0x3e11ca68	0.14237368
11	0xbd7ab4e3	-0.061207663
12	0xbe20b099	-0.15692367
13	0xbd5119e5	-0.051050086
14	0x3d8f6df5	0.070033945
15	0x3d39be01	0.045347217
16	0x3dc179c2	0.094470516
17	0x3dee5474	0.11637202
18	0x3e02a9ea	0.1276013
19	0x3e59e716	0.21279559
20	0xbdb7c86c	-0.08973774
21	0xbd068bca	-0.032848157
22	0x3db304bb	0.08741137
23	0x3e305972	0.1722162
24	0x3e108220	0.14112139
25	0x3d5c3c87	0.05376866
26	0x3e0d1092	0.13775852
27	0xbe0d1ff0	-0.13781714
28	0x3b8b5819	0.0042524454
29	0xbdebad4f	-0.11507665
30	0x3e3b5baf	0.18296693
31	0xbe11ff6b	-0.1425759
32	0x3c12aebd	0.008952794
33	0x3d89f0ba	0.06735368
34	0x3dd06f8d	0.101775266
35	0xbde39c3e	-0.11113785
36	0x3e34845f	0.1762862
37	0xbe025a54	-0.1272977
38	0x3d2a68ff	0.04160404
39	0xbe02750e	-0.12739965
40	0xbd063cb1	-0.032772724
41	0x3e382ae7	0.17985116
42	0xbe0263a8	-0.12733328
43	0xbe026fc3	-0.12737946
44	0x3d4902b0	0.04907483
45	0x3de11b78	0.109915674
46	0x3c36b694	0.011151928
47	0x3bf02dd0	0.00732968
48	0xbddbecd0	-0.10738528
49	0xbce165ad	-0.027514303
50	0x3e43c7cc	0.19119185
51	0x3e8c8265	0.27443233
52	0xbca8e109	-0.020615118
53	0x3e39d259	0.18146648
54	0x3e2819b6	0.16416058
55	0x3d7e73a5	0.062122006
56	0x3e5cf72c	0.21578664
57	0xbd6331b4	-0.055467322
58	0xbd962dfa	-0.07332988
59	0x3d1d7f54	0.038451508
60	0x3d236a4b	0.03989629
61	0x3e18c4f4	0.14918882
62	0x3e169b06	0.14707574
63	0x3dc830f2	0.097749606
64	0xbdec9e97	-0.11553686
65	0x3e01e2b6	0.1268414
66	0x3d7aebce	0.061260037
67	0x3e3186a4	0.17336518
68	0x3e1ffd1d	0.15623899
69	0x3da13b5a	0.078726485
70	0xbd51c18e	-0.05120998
71	0x3e2ba885	0.16763504
72	0x3e3ac353	0.18238573
73	0x3de6a6a3	0.11262252
74	0x3e85d398	0.26137996
75	0x3e9075df	0.28214929
76	0x3e1ddaa6	0.15415439
77	0x3d2a5baa	0.041591324
78	0xb9e42649	-0.00043516073
79	0x3e1f0670	0.155298
80	0xbe83460a	-0.25639373
81	0xbe253c36	-0.1613625
82	0x3d696d72	0.05698914
83	0x3d5adc72	0.05343289
84	0x3e94a36f	0.2903094
85	0x3e3140ab	0.17309825
86	0x3dfa492c	0.12220988
87	0x387ad849	5.9806076e-05
88	0x3d142545	0.036168355
89	0x3e3797d9	0.17929019
90	0x3d47814e	0.0487073
91	0xbd280864	-0.041023627
92	0x3c6d1789	0.014470943
93	0xbe7ac3a8	-0.244887
94	0xbd7898d9	-0.060692642
95	0x3df07e85	0.11742882
96	0x3d492ce6	0.049115084
97	0xbdebe730	-0.11518705
98	0x3dbbf2b3	0.091771506
99	0x3e2a6167	0.16638719
100	0x3dc2f994	0.095202595
101	0x3db78010	0.08959973
102	0xbda12a3e	-0.07869385
103	0x3cca77a0	0.024715245
104	0xbd6308be	-0.05542826
105	0x3e349f07	0.17638789
106	0x3e1d962e	0.1538932
107	0xbd2c2e8b	-0.042036574
108	0xbdc88e86	-0.09792809
109	0xbc1c5235	-0.009541084
110	0xbd40a3d3	-0.047031235
111	0x3ddcbb75	0.10777942
112	0x3dce9395	0.10086743
113	0xbc543b51	-0.012953595
114	0xbd7977f1	-0.0609054
115	0x3d365c11	0.044521395
116	0xbd15fa8c	-0.036615893
117	0xbdda4880	-0.106583595
118	0xbdd929e7	-0.10603695
119	0x3e303fb5	0.17211802
120	0x3da7c860	0.081925154
121	0xbc000261	-0.007813067
122	0x3e48f67e	0.1962528
123	0x3d976467	0.07392197
124	0x3d6b0e62	0.057386763
125	0x3dfff41f	0.12497734
126	0xbd87409d	-0.06604121
127	0x3d91a6e4	0.0711191
128	0xbe7c62f9	-0.2464713
129	0xbe307a88	-0.17234242
130	0x3dbadb42	0.09123851
131	0xbe818b30	-0.25301504
132	0x3d7879ec	0.06066315
133	0xbdc3b56b	-0.09556087
134	0x3d5a676d	0.05332129
135	0xbcce87f0	-0.025211304
136	0xbda5286d	-0.08064351
137	0xbda5324a	-0.080662325
138	0x3db10704	0.08643916
139	0xbda524d5	-0.08063666
140	0xbdb0f10a	-0.086397246
141	0xbdbdc673	-0.09266367
142	0xbda52740	-0.08064127
143	0xbe21a686	-0.1578618
144	0xbc8d352a	-0.017237265
145	0x3e346c0b	0.1761934
146	0x3e19bf08	0.15014279
147	0x3e28703e	0.16449067
148	0xbcbb9ca5	-0.022901842
149	0x3da19acb	0.078908525
150	0xbd9317d0	-0.07182276
151	0x3d023565	0.031789202
152	0xbd8ff810	-0.07029736
153	0xbd39cd46	-0.04536178
154	0x3c4efb85	0.012633209
155	0x3e4817f5	0.19540389
156	0x3d8dfca3	0.06932952
157	0x3e48da9a	0.1961464
158	0xbd630d04	-0.055432335
159	0x3d652f78	0.055953473
160	0xbcbfba4e	-0.023404267
161	0x3e3f014f	0.18652843
162	0x3c9a6857	0.018848581
163	0x3e0dcf35	0.13848574
164	0xbdef0be0	-0.11672187
165	0x3e19ad88	0.15007603
166	0x3e10306a	0.14080968
167	0x3e414147	0.18872558
168	0x3dd34fea	0.10317977
169	0xbdaa6cec	-0.083215564
170	0x3d2ec199	0.042665098
171	0x3e89b3e9	0.26895073
172	0x3d32a891	0.04361779
173	0x3e25b47b	0.16182129
174	0xbdd2b7dd	-0.102889754
175	0x3e09912b	0.13434283
176	0x3e53c097	0.20678936
177	0xbe86b163	-0.2630721
178	0x3dcd9595	0.10038296
179	0xbd030500	-0.03198719
180	0xbe383a93	-0.17991094
181	0x3cc540a1	0.024078669
182	0xbd5a6377	-0.053317513
183	0x3db618fc	0.08891484
184	0xbe1f8493	-0.15577917
185	0xbdc437b1	-0.09580935
186	0xbd05be17	-0.032651987
187	0x3d9e3e3a	0.077267125
188	0xbe0f21bd	-0.13977714
189	0x3e2a00b3	0.16601829
190	0xbdc984f3	-0.09839811
191	0xbe2fd052	-0.17169312
192	0x3d03d766	0.03218784
193	0xbe24062e	-0.16017982
194	0xbc8b3f3e	-0.01699793
195	0x3de90215	0.1137735
196	0xbcf1130d	-0.02942803
197	0x3cdf4897	0.027256293
198	0xbd93a114	-0.072084576
199	0x3e098455	0.13429387
200	0xbcd467c1	-0.02592838
201	0x3da4b928	0.08043128
202	0x3dc93b34	0.09825745
203	0xbdd75467	-0.10514145
204	0x3d6c190c	0.057641074
205	0xbc801222	-0.015633646
206	0x3c404ec0	0.011737525
207	0x3e34ce36	0.17656788
208	0x3e15bcad	0.14622755
209	0xbd688788	-0.056769878
210	0xbe45eac9	-0.19327845
211	0x3de60180	0.11230755
212	0x3dee44a2	0.116341844
213	0x3e0ae3f9	0.13563527
214	0xbe1e2bfd	-0.15446468
215	0x3e1d47b5	0.15359385
216	0xbd81ee5c	-0.063442916
217	0xbe15481c	-0.14578289
218	0xbcdc75a9	-0.026911573
219	0xbdd67027	-0.1047061
220	0x3df43e72	0.11925973
221	0x3d361a30	0.044458568
222	0x3d997b92	0.07494272
223	0xbe611752	-0.21981552
224	0xbd18a913	-0.037270617
225	0xbd78e2e8	-0.06076327
226	0xbe1e2bab	-0.15446346
227	0xbcf3d7c4	-0.029765971
228	0xbdc0cec7	-0.0941444
229	0x3e77beb3	0.2419384
230	0x3c4f9683	0.012670162
231	0xbd950ae2	-0.07277466
232	0xbbba377c	-0.005682884
233	0xbcdbfa08	-0.026852623
234	0x3ded3652	0.115826264
235	0x3ce2b67f	0.027674912
236	0xbe1e2a86	-0.15445909
237	0x3d8c5ca7	0.068536095
238	0xbe14b37d	-0.14521594
239	0x3d960b1f	0.0732634
240	0x3cfb4f9f	0.030677615
241	0x3dba62a3	0.09100845
242	0x3d47ddfc	0.048795685
243	0x3d823e39	0.06359524
244	0x3c977cee	0.018492188
245	0x3db6e19d	0.08929751
246	0x3bd4beec	0.006492486
247	0x3d6b3b0d	0.057429362
248	0xbcc47d02	-0.02398539
249	0x3cfee34b	0.031114241
250	0x3e18eae3	0.14933352
251	0xbdabcbe4	-0.083884984
252	0x3db09c39	0.08623547
253	0xbe23424d	-0.1594326
254	0x3e27692f	0.16348718
255	0x3e52e3c4	0.20594698

fc1.bias f4 [512]
0	0x3e02643e	0.12733552
1	0x3da523d9	0.08063478
2	0x3e1e291e	0.15445372
3	0x3e39815d	0.18115754
4	0x3d809f3d	0.06280372
5	0x3e03177a	0.12801924
6	0x3d31a42c	0.043369457
7	0x3e251bb5	0.1612385
8	0x3d690ce0	0.056897044
9	0x3dfcb68e	0.12339507
10	0x3dbafe9f	0.09130596
11	0x3de4bafe	0.111684784
12	0x3dc60ab6	0.09670012
13	0x3e2dc9ed	0.1697156
14	0x3e2c6f4a	0.16839328
15	0x3dcc77fb	0.09983822
16	0x3df245b1	0.11829699
17	0x3db45e14	0.088070065
18	0x3dcb4b3a	0.09926458
19	0x3e419534	0.18904573
20	0x3df052ba	0.11734529
21	0x3e11184f	0.14169429
22	0x3e37f36c	0.17963952
23	0x3e391353	0.18073778
24	0x3da5327f	0.08066272
25	0x3dae7689	0.085187025
26	0x3e4d907f	0.20074652
27	0x3e65e8fb	0.22452156
28	0x3e69a23e	0.22815797
29	0x3d7777d5	0.060417015
30	0x3e2dabdf	0.16960095
31	0x3d24b5a4	0.04021229
32	0x3e0fdb60	0.14048529
33	0x3e0d3cd0	0.1379273
34	0x3e5c663e	0.21523377
35	0x3df5d2aa	0.120030716
36	0x3cd6ba86	0.026211988
37	0x3de3c3af	0.11121308
38	0x3e47df93	0.1951888
39	0x3e02d1b8	0.12775314
40	0x3d419ca6	0.047268532
41	0x3e2738db	0.16330282
42	0x3e0a4bcc	0.13505477
43	0x3e477212	0.19477108
44	0x3e2af033	0.16693191
45	0x3d6ddbab	0.05807082
46	0x3db421d0	0.08795512
47	0x3d933c7e	0.07189272
48	0x3e5d7df3	0.21630077
49	0x3dfac2fa	0.1224422
50	0x3e0817a6	0.13290271
51	0x3dfcc483	0.12342169
52	0x3e2ccc5f	0.16874836
53	0x3e2a0aa8	0.16605628
54	0x3d942ba4	0.07234886
55	0x3e07b724	0.13253456
56	0x3e114440	0.14186192
57	0x3d891ec3	0.066953205
58	0x3e5dcfc6	0.2166129
59	0x3e639c2b	0.22227542
60	0x3d24ce7f	0.040235993
61	0x3e17ed64	0.14836651
62	0x3cdd05f4	0.026980378
63	0x3e0f076e	0.13967678
64	0x3e1f0142	0.15527824
65	0x3dfb38e0	0.122667074
66	0x3e4e6471	0.20155503
67	0x3e71689e	0.23575065
68	0x3e04a542	0.12953666
69	0x3def8239	0.1169476
70	0x3d33f5d3	0.043935608
71	0x3de4c207	0.1116982
72	0x3e34ca40	0.17655277
73	0x3dfdb05d	0.12387154
74	0x3d4c52ae	0.049883537
75	0x3e0024a4	0.12513977
76	0x3dcf7927	0.1013053
77	0x3e54f597	0.2079681
78	0x3e324d04	0.17412192
79	0x3e02efea	0.12786832
80	0x3e1d644e	0.15370294
81	0x3ddc12c9	0.107457705
82	0x3e5c6cfd	0.2152595
83	0x3e04bcaf	0.12962602
84	0x3d5a24b0	0.053257644
85	0x3e51cffd	0.20489497
86	0x3e497693	0.19674139
87	0x3dc86aa6	0.097859666
88	0x3dd17933	0.10228195
89	0x3dfcf6e6	0.1235178
90	0x3dba42a4	0.09094742
91	0x3df75a04	0.12077716
92	0x3e3ffa8d	0.18747921
93	0x3e261a89	0.1622106
94	0x3de48915	0.11158959
95	0x3dbf178b	0.09330662
96	0x3dc5fc1b	0.09667226
97	0x3c4ba929	0.012430468
98	0x3e0fc163	0.14038615
99	0x3c83b0ca	0.01607551
100	0x3d0f6589	0.03500894
101	0x3db245cd	0.0870472
102	0x3e2e02fa	0.16993323
103	0x3e252f8d	0.1613142
104	0x3d89b2e3	0.06723573
105	0x3d24ad4b	0.040204328
106	0x3e4d3684	0.20040327
107	0x3e3e02f6	0.18555817
108	0x3dbe6325	0.09296254
109	0x3d9d481b	0.07679769
110	0x3e070557	0.1318563
111	0x3db1cdd1	0.086818345
112	0x3d80eb34	0.062948614
113	0x3d222674	0.039587453
114	0x3e760f83	0.24029355
115	0x3d2f3e5d	0.042784084
116	0x3e0e7805	0.13912971
117	0x3e367967	0.17819749
118	0x3db1c923	0.08680942
119	0x3db89e57	0.09014576
120	0x3dc0675a	0.09394713
121	0x3e2b7a6d	0.1674592
122	0x3d9de7af	0.07710206
123	0x3e1c9604	0.15291601
124	0x3e482f2d	0.19549246
125	0x3bbf25bc	0.0058333557
126	0x3d4d7f89	0.050170455
127	0x3e76c75f	0.24099492
128	0x3e34690d	0.17618199
129	0x3e40ba13	0.18820982
130	0x3d88cbe3	0.06679513
131	0x3e04e727	0.12978803
132	0x3de44113	0.111452244
133	0x3da1c266	0.07898407
134	0x3e545130	0.20734096
135	0x3dddbec4	0.10827401
136	0x3e191b25	0.14951761
137	0x3db58b3d	0.08864448
138	0x3e323d80	0.17406273
139	0x3e5f7573	0.21822147
140	0x3e011c2c	0.12608403
141	0x3d4c0a35	0.04981442
142	0x3e3d5cd0	0.18492436
143	0x3d9c0af5	0.076192774
144	0x3e04d7c1	0.12972929
145	0x3e0d4d5d	0.13799043
146	0x3dae8c9b	0.08522912
147	0x3dccbea8	0.09997302
148	0x3df56434	0.11982003
149	0x3e090a13	0.1338275
150	0x3de720de	0.11285566
151	0x3dd6a010	0.10479748
152	0x3e0075f3	0.12544994
153	0x3d87467f	0.06605243
154	0x3e2aa608	0.16664898
155	0x3e28c317	0.16480671
156	0x3d82df55	0.063902535
157	0x3d96f016	0.073700115
158	0x3e0e84b0	0.13917804
159	0x3e2d7a0a	0.16941085
160	0x3d3e583e	0.046470873
161	0x3dff6996	0.12471311
162	0x3e4a5bb4	0.19761544
163	0x3e18fd4e	0.14940378
164	0x3e072a42	0.13199714
165	0x3d8a2d27	0.067468934
166	0x3d852676	0.065014765
167	0x3e2eb2ca	0.1706039
168	0x3d5e951e	0.054341428
169	0x3d89ca69	0.0672806
170	0x3dba6b0a	0.09102447
171	0x3e2788eb	0.16360824
172	0x3e28830b	0.16456239
173	0x3d21ea15	0.03952988
174	0x3dcabca3	0.09899261
175	0x3e73d4fa	0.23811713
176	0x3db4d4ff	0.08829688
177	0x3e32bcb4	0.17454797
178	0x3e150e2d	0.14556189
179	0x3e3d5fbf	0.18493555
180	0x3d0bf916	0.034173094
181	0x3e49a971	0.19693543
182	0x3dbdaf0a	0.09261902
183	0x3e4f1e3e	0.2022638
184	0x3e241ba7	0.16026174
185	0x3e0a05bc	0.1347875
186	0x3dfb6ae8	0.1227625
187	0x3e1fde7d	0.15612216
188	0x3d174fc3	0.0369413
189	0x3d47d53a	0.048787333
190	0x3e1909a3	0.14945082
191	0x3d9396a7	0.07206469
192	0x3e1f9654	0.1558469
193	0x3e0bf61c	0.13668102
194	0x3e460473	0.19337635
195	0x3d4354d2	0.047688313
196	0x3cafd151	0.021462115
197	0x3e1b5a52	0.15171173
198	0x3d0a8140	0.03381467
199	0x3dcfc553	0.101450585
200	0x3e16858c	0.14699382
201	0x3d9f5d27	0.07781439
202	0x3dc08740	0.09400797
203	0x3e1bcd34	0.15214998
204	0x3d46871f	0.048468705
205	0x3d8f4f81	0.06997586
206	0x3e4b0cf9	0.19829167
207	0x3dd7e046	0.10540824
208	0x3e45e0a7	0.1932398
209	0x3d5c909c	0.053848848
210	0x3e43f249	0.19135393
211	0x3e048688	0.12941945
212	0x3d8ff2c4	0.07028726
213	0x3e61609b	0.22009508
214	0x3e72d0ea	0.23712507
215	0x3e57a210	0.21057916
216	0x3e345719	0.1761135
217	0x3e11471d	0.14187284
218	0x3dd198ad	0.10234199
219	0x3d348c2c	0.04407899
220	0x3de29932	0.11064376
221	0x3d677248	0.05650547
222	0x3da80490	0.08203995
223	0x3e2313e1	0.15925552
224	0x3e28162e	0.16414711
225	0x3da69aed	0.081350185
226	0x3d19530d	0.03743272
227	0x3d8a8214	0.06763092
228	0x3e2a2c91	0.16618563
229	0x3e233301	0.15937425
230	0x3e5df144	0.21674067
231	0x3dbbe4f1	0.091745265
232	0x3d9e9c99	0.077447124
233	0x3bc90e5c	0.006135745
234	0x3e371fee	0.17883274
235	0x3e304294	0.17212898
236	0x3e218e45	0.15776928
237	0x3db1184e	0.08647214
238	0x3ddac917	0.10682886
239	0x3e1f06a8	0.15529883
240	0x3d279150	0.040910065
241	0x3d299af8	0.041407555
242	0x3d81adc2	0.0633197
243	0x3d353a53	0.044245075
244	0x3dca0fe2	0.09866311
245	0x3df65b48	0.12029129
246	0x3e060e95	0.130915
247	0x3d3260dc	0.043549404
248	0x3cf07273	0.029351449
249	0x3da86212	0.082218304
250	0x3e1bfde0	0.15233564
251	0x3cd907e0	0.026493013
252	0x3db32720	0.08747697
253	0x3e03c214	0.12867004
254	0x3e0513a4	0.12995774
255	0x3e048b0c	0.12943667

fc2.weight f4 [14, 512]
0	0x3d1b5033	0.03791828
1	0xbe2ba095	-0.16760476
2	0xbe258538	-0.161641
3	0xbe3e5709	-0.18587889
4	0xbe1b3fcd	-0.15161057
5	0xbe3e5f8b	-0.18591134
6	0x3deebde4	0.116573125
7	0xbe0f4be2	-0.13993791
8	0xbe28d53c	-0.16487592
9	0x3e32bd54	0.17455035
10	0xbdf387c6	-0.11891131
11	0x3d64e51d	0.055882562
12	0x3e02d882	0.12777904
13	0xbdbff3df	-0.093726866
14	0x3df29a3a	0.11845823
15	0x3e0b0239	0.13575067
16	0xbe3825d8	-0.17983186
17	0x3e538b92	0.2065871
18	0x3e2c9093	0.16852026
19	0xbd05fd98	-0.03271255
20	0xbe13f850	-0.14450192
21	0xbddca5d2	-0.10773815
22	0xbdea7159	-0.114474006
23	0x3db68c00	0.08913422
24	0xbe539334	-0.20661622
25	0x3e35a535	0.17738803
26	0x3e0bf9f4	0.13669568
27	0xbd9f6390	-0.07782662
28	0x3e168d51	0.14702345
29	0xbe7ba876	-0.24575981
30	0xbe145b2e	-0.14487907
31	0x3e261cda	0.16221943
32	0xbe2f63e8	-0.17127955
33	0xbe1dd90a	-0.15414825
34	0xbe125a12	-0.14292172
35	0xbe2ed864	-0.17074734
36	0x3e0493d5	0.12947018
37	0xbe0db98d	-0.13840313
38	0xbe0d41ea	-0.13794675
39	0x3dce7694	0.10081211
40	0x3e02624f	0.12732814
41	0xbe32f6f4	-0.17477018
42	0x3e0db58a	0.13838783
43	0x3d7bf218	0.061510175
44	0xbe0d01b2	-0.13770178
45	0xbe4b7649	-0.19869341
46	0xbe2c9b5d	-0.16856141
47	0xbe71e6fc	-0.2362327
48	0xbe16c39f	-0.14723061
49	0x3dac8022	0.08422877
50	0xbe44b95c	-0.19211334
51	0xbe1dda99	-0.1541542
52	0xbe0513eb	-0.1299588
53	0xbe1bdd14	-0.15221053
54	0xbdeded16	-0.11617486
55	0xbc111dc2	-0.0088571925
56	0x3e27c258	0.1638273
57	0xbe20e7f0	-0.15713477
58	0x3e0eabda	0.13932744
59	0x3dc90efb	0.098173104
60	0x3df4805f	0.11938547
61	0x3e0ef08f	0.13958953
62	0xbe18ef80	-0.14935112
63	0x3e199085	0.14996536
64	0xbe1de5a1	-0.15419628
65	0xbe3fced8	-0.18731248
66	0xbcafbe09	-0.02145292
67	0xbe1223aa	-0.14271417
68	0xbe1d18d7	-0.15341507
69	0x3c95b836	0.018276315
70	0xbda9854d	-0.08277378
71	0x3bd1dab1	0.006404244
72	0x3dada6e9	0.08479101
73	0xbe0f41c0	-0.13989925
74	0xbddebf68	-0.108763516
75	0xbea684a7	-0.3252308
76	0xbe3bf4e8	-0.18355143
77	0xbe13e38c	-0.14442271
78	0x3df541d0	0.11975443
79	0xbe1bba5a	-0.15207806
80	0xbe219a1e	-0.15781447
81	0x3d84b71f	0.0648024
82	0xbe08bb66	-0.13352737
83	0xbe2309f5	-0.15921767
84	0xbe3e5d61	-0.18590309
85	0x3df5d3ae	0.12003265
86	0xba8129e0	-0.0009854399
87	0x3e0ea489	0.13929953
88	0xbe2a7b7f	-0.16648673
89	0xbe32ae09	-0.17449202
90	0xbe112265	-0.14173277
91	0xbe0441b9	-0.12915696
92	0x3dc13820	0.09434533
93	0xbdd63d6e	-0.104609355
94	0xbe09d81c	-0.13461345
95	0x3c896900	0.0167737
96	0xbde4fa10	-0.11180508
97	0xbe39ea39	-0.18155755
98	0xbe303200	-0.17206573
99	0x3dc02114	0.09381309
100	0x3e2a16d1	0.16610266
101	0xbe38c74f	-0.1804478
102	0x3e12fc7f	0.14354132
103	0x3dd9bcf3	0.10631742
104	0xbe460c77	-0.19340692
105	0xbda3f96c	-0.08006558
106	0xbdcf8ed6	-0.10134666
107	0x3e087f80	0.13329887
108	0x3e129e8a	0.1431829
109	0xbddf80a9	-0.10913212
110	0xbddf8001	-0.10913087
111	0xbda32cd6	-0.07967536
112	0x3d833663	0.06406858
113	0xbe2c74f0	-0.16841483
114	0x3dcfafc4	0.101409465
115	0xbd81d341	-0.063391216
116	0xbdb66392	-0.0890571
117	0x3e011f7a	0.12609664
118	0x3d94c13a	0.072634175
119	0xbdf87e37	-0.121334486
120	0xbe0a5cad	-0.13511916
121	0x3dd409e6	0.103534505
122	0x3df01e9f	0.117245905
123	0xbe289f91	-0.1646712
124	0x3d9be312	0.076116696
125	0xbe43f3d9	-0.19135989
126	0xbe01a440	-0.12660313
127	0x3d9f58ff	0.077806465
128	0xbd88ecc0	-0.066857815
129	0x3db370d5	0.087617554
130	0x3da91b16	0.08257119
131	0xbe1566ba	-0.14589968
132	0xbe4608a3	-0.19339232
133	0x3e120b92	0.14262226
134	0x3d9153ea	0.070960835
135	0x3d98b33a	0.0745606
136	0xbe189e5e	-0.14904162
137	0xbdcda898	-0.10041922
138	0xbe26e117	-0.16296802
139	0xbe1e3971	-0.154516
140	0x3e1752d1	0.14777686
141	0x3dfb6f6b	0.12277111
142	0x3dde93c8	0.10868031
143	0xbe22a8d8	-0.15884721
144	0xbe2e2606	-0.17006692
145	0x3dbe05b8	0.092784345
146	0xbe3c5772	-0.18392733
147	0x3e3f42fa	0.18677893
148	0x3e0d92da	0.1382555
149	0xbe414820	-0.1887517
150	0xbe2c8e19	-0.16851081
151	0xbe33d48a	-0.17561546
152	0xbdcd2cd8	-0.10018319
153	0x3de47fed	0.111572124
154	0xbe11a7ba	-0.14224139
155	0x3e0ba85f	0.13638447
156	0xbe07a50d	-0.13246556
157	0xbe168216	-0.14698061
158	0xbe33a670	-0.1754396
159	0x3e15d506	0.14632043
160	0xbe4be5a9	-0.19911827
161	0xbe5764a0	-0.21034479
162	0x3e14609c	0.14489979
163	0xbdd69873	-0.10478296
164	0x3e08d740	0.13363361
165	0x3e018790	0.12649369
166	0xbdf0d5ed	-0.11759553
167	0x3deac89f	0.11464047
168	0x3c0ba323	0.008522782
169	0xbe1d5453	-0.15364198
170	0x3dd733cd	0.10507927
171	0x3c012532	0.007882403
172	0x3d0c5b79	0.034266923
173	0xbe557110	-0.20843911
174	0xbe22b04d	-0.15887566
175	0x3d92b6fe	0.07163809
176	0xbd9d0d35	-0.07668535
177	0xbe08bbe1	-0.1335292
178	0xbe277b8d	-0.16355725
179	0xbe1cb70e	-0.15304205
180	0x3e00eeca	0.12591091
181	0xbe272474	-0.163225
182	0x3e177e58	0.1479429
183	0xbe2a3b19	-0.16624106
184	0x3d1d2013	0.038360666
185	0xbe12bbe3	-0.14329486
186	0xbe229047	-0.1587535
187	0xbe4a266b	-0.19741218
188	0xbe448d4d	-0.19194527
189	0x3d8809a0	0.06642461
190	0xbc6b9d40	-0.014380753
191	0x3db8b7ca	0.0901943
192	0x3e1ba088	0.15197957
193	0x3dbaa1cf	0.09112894
194	0xbdf417a9	-0.11918575
195	0x3d8b50b2	0.06802501
196	0xbdf646d5	-0.12025229
197	0x3dcbd82d	0.09953342
198	0x3e1df6e4	0.15426213
199	0xbd62167f	-0.055197235
200	0xbd575bff	-0.05257797
201	0x3e05e915	0.13077195
202	0x3da9e697	0.08295935
203	0xbe228974	-0.15872747
204	0xbe7e89ab	-0.24857204
205	0x3e4469b5	0.19180949
206	0xbe2052b7	-0.15656553
207	0x3e0d7b4e	0.13816568
208	0xbe189e4b	-0.14904134
209	0x3dca012d	0.098635055
210	0x3e03df34	0.12878114
211	0xbde2b98f	-0.11070549
212	0xbe2fc438	-0.17164695
213	0xbddb79de	-0.10716604
214	0xbceda887	-0.029011024
215	0xbe08d8f6	-0.13364014
216	0x3d8a403c	0.06750533
217	0xbdd2b26a	-0.10287936
218	0xbe0ebc6b	-0.13939063
219	0xbe15d11d	-0.14630552
220	0xbe484346	-0.19556913
221	0x3e26738a	0.16255012
222	0x3df708de	0.12062238
223	0x3e11f169	0.14252247
224	0x3e10e089	0.14148153
225	0x3e0d8537	0.13820349
226	0xbdfc858d	-0.1233016
227	0xbdc6fd50	-0.09716284
228	0x3e02a2da	0.12757435
229	0xbe50e291	-0.20398928
230	0xbe06d8ca	-0.13168636
231	0x3dd8bc04	0.10582736
232	0xbe779671	-0.24178483
233	0xbe275f2a	-0.16344896
234	0xbe15d6fc	-0.14632791
235	0xbda6c333	-0.081427
236	0xbe0372ec	-0.12836808
237	0x3dfed400	0.124427795
238	0xbe11bb56	-0.14231619
239	0xbe12c8b1	-0.1433437
240	0xbe438d7e	-0.19096944
241	0x3e11dff2	0.14245585
242	0xbe2aa38c	-0.1666395
243	0x3de7e8e0	0.11323714
244	0x3dff06dd	0.12452481
245	0x3bd5a759	0.0065201935
246	0xbe0b1a73	-0.13584308
247	0xbe353652	-0.17696503
248	0xbe357d76	-0.17723641
249	0xbe011b58	-0.12608087
250	0xbe2c19c1	-0.168067
251	0xbe20eb4e	-0.15714762
252	0x3e14750f	0.1449778
253	0x3dd9b46b	0.10630115
254	0xbda29233	-0.079380415
255	0x3e8a4887	0.2700846

fc2.bias f4 [14]
0	0xbd213d56	-0.039365135
1	0xbd8b2aef	-0.06795298
2	0xbcb3ee35	-0.021964172
3	0xbdba4c38	-0.09096569
4	0x3dff01c1	0.124515064
5	0x3e06dcbd	0.13170142
6	0xbc8d5bfc	-0.017255776
7	0xbddf22bd	-0.10895298
8	0xbd3c2eac	-0.045942947
9	0xba790f9a	-0.0009500921
10	0x3d4c38d3	0.04985888
11	0xbdd0238d	-0.10163031
12	0x3d49d602	0.04927636
13	0xbd212195	-0.039338667
