supervised learning/neural_networks/nn from scratch/digit_classifier_model_scratch .npz (npz, 64646 bytes, 4 tensors)

W1 f8 [10, 784]
0.00594346867545427 0.00862227142663817 0.0035478403634020017 0.0013232802439508363 0.003701396617660171 0.007436994215153079 0.0051789908889516 0.003582570693314069
0.007867287175885872 0.003860725598810464 0.0018711585206262781 0.0067822229282959445 0.008201066847321413 0.005837317172225436 0.0005230840029056267 0.0013976331427488864
0.00652882456256341 0.007417023146891424 0.0075018389694903025 0.0005291585171161206 0.008793406985769258 0.006011581415011004 0.0008574918921803998 0.0035727059102632864
0.005286579991598351 0.0025425706408390403 7.176760912314673e-05 0.0005816358925836452 0.005174611992256206 0.0021375777221766335 0.0019453610054386073 0.006507976437757185
0.00915651231570682 0.008001896675775139 0.00846181378736713 0.00900229938033956 0.003047212052687154 0.005186299796634399 0.010041032685050692 0.008601781113430977
0.010047999951763607 0.003779254654176176 0.0030878860910560466 0.0030614801323852634 0.006063818887421715 0.0068746193618769965 0.0033181028657601522 0.0041509372449640035
0.007539619404320741 0.000746029199529351 2.7867079567027503e-05 0.003068335470238411 0.0029928297353935176 0.009782343226624291 0.005846434572674117 0.008286329521294378
0.009209999424028182 0.0005415665690588689 0.0005959299236569176 0.007765814290847198 0.005363062301943414 0.004984130479964164 0.005132134986858037 0.005774226024987204
0.004043726050505642 0.013872574659219724 0.013117719869239458 0.005159801546319336 0.005761177131943783 0.013049248100843487 0.009081252942644176 0.01531307397846415
0.01805590452505706 0.02352910683620896 0.025261151232403155 0.02318969533335897 0.01585024763512593 0.01327634671411037 0.006970218600506308 0.004549159183746468
0.006460650481621464 0.009663516154837406 0.0023245484075049374 0.001661656377242974 0.00551155329210162 0.00317004254687599 0.0047789863605905755 0.002705126540240043
0.005810706863077465 0.0012070989278740519 0.0014765176816706983 0.0014540306357803743 -0.00018995175656975042 -0.003535566233484383 -0.0035486046145464236 -0.011002075790875993
-0.026595287158669483 -0.02532874344924587 -0.027952582884954554 -0.018854902681998235 -0.005706376265395966 0.02409958263925305 0.03392724611366229 0.042389649065630315
0.035314299049566795 0.02009605471647237 0.01945784833094605 0.0159201869509245 0.0037750832192751265 0.00016212159515040575 0.005095630811502591 0.002863459297531119
0.009789310017075392 0.0036178514962465916 0.004107782665232665 0.004133008899996312 0.0050505553358488765 0.0013678823893099597 -0.003433326197833959 -0.013768798080643494
-0.02681983917963363 -0.04599592793166022 -0.061406690137895945 -0.07762941667549186 -0.0975996206633907 -0.09780237900836646 -0.08620824348142335 -0.057383498424901806
-0.02522468372614967 -0.0024672292135836547 0.010830054897457248 0.007300884717167367 0.012822873217460075 0.01896463763242731 0.017188833929145678 0.021526623983416298
0.009452165407462468 0.00914004023171578 0.004226581186791344 0.006908559413052201 0.007653812679148375 0.00942898155941359 0.0014291159152653211 0.003890513397128319
-0.0039721337489771105 -0.00771389382216555 -0.019779768970213746 -0.02826118114318422 -0.028320765057252728 -0.03950178002917071 -0.040041735514135236 -0.044340015390139036
-0.04454735152885092 -0.04661424810135679 -0.021561602278320675 0.018399666037329166 0.056298055789354325 0.07532719570242616 0.0533537844452946 0.03451877105007879
0.01602093518237794 0.03015463345758654 0.04272640764925293 0.04279317684443632 0.026991659475139894 0.005492353390726408 0.00018976696681460097 0.0006691994032789712
0.006679233438689364 0.004783824019346356 0.007473282048156245 0.003530500618299813 -0.00558568369293699 -0.01699513320994058 -0.024294324022820446 -0.02510109017929192
-0.012908205671324655 0.002334458090767176 0.03185187006847695 0.03596632669825998 0.027591466987152213 0.007326346376291162 0.0030913008507610696 0.03994195334897378
0.06267530042072479 0.07510264222609943 0.06003560606643567 0.042909917467037775 0.02733899226424582 0.03747480951923293 0.07022769471691036 0.07041717112049253
0.04166755584155854 0.014423032653502331 0.006688156546094699 0.005149555618868845 0.0047936623328695424 0.001439525090181233 0.0022563854663861143 -0.001566817086822553
-0.02214318872384005 -0.02936226803658229 -0.027856056790057083 -0.007297496515657979 0.02190830390018702 0.05602310095849158 0.07933897785835375 0.06736720399959333
0.017469967783102305 -0.01943753238228329 -0.03069634846622587 -0.010165776307486888 0.006876615693584886 0.023615818833617293 0.03091473413695005 0.02413935411426182
0.03207740520155094 0.057290160064648744 0.07585270559467035 0.07921800291470013 0.04090952903981688 0.012037521725749777 -0.00031890404721739217 0.00794331661867058
0.004434582557732056 0.0056159370992284316 -0.0025964720820031897 -0.011288784454485178 -0.035542068603748554 -0.03858529267828665 -0.02357436036000377 0.011898496384323085
0.0629752084084335 0.09360270535417774 0.09542988457714889 0.07261533663462948 0.01563403921073113 -0.0382237527655789 -0.10045211851061209 -0.11431946413974513
-0.06903350362822411 -0.03901239645150348 0.008240936933279451 0.036744743400665476 0.04751644143958583 0.06235864880209799 0.07405231488982295 0.07640134619543969
0.04855609326568588 0.013018261464654405 -0.0004213438913595603 0.0065092984492289875 0.000509298797546622 0.001481839668884214 0.0016574646975009016 -0.013660437648196248
00000000: 11c0 5fb9 2d58 783f 786f 5bae 8da8 813f
00000010: 85b6 a14a 5c10 6d3f e7ee c157 3dae 553f
00000020: 8519 842d 6452 6e3f f137 f4ee 4076 7e3f
00000030: 9fc5 e8c7 9036 753f 671b d4fe 3159 6d3f
00000040: 2684 0769 b91c 803f 156d f145 87a0 6f3f
00000050: 8ace b529 35a8 5e3f 4049 bd1a adc7 7b3f
00000060: 9f62 368f b8cb 803f df0d 9ee5 dee8 773f
00000070: fcc9 bf57 f223 413f 2952 f428 19e6 563f
00000080: eaf7 a3ff f7bd 7a3f 90da 97fd 4f61 7e3f
00000090: fe85 8a90 3fba 7e3f aec0 4043 e756 413f
000000a0: c6f5 641b 4702 823f f506 3299 999f 783f
000000b0: f686 16d1 2919 4c3f 36ac 5ee1 8144 6d3f
000000c0: a7e2 be82 61a7 753f bb6b 0138 28d4 643f
000000d0: 9a11 ea22 3ed0 123f 1588 8391 1d0f 433f
000000e0: f36f 6b54 f931 753f 52dc 194d d382 613f
000000f0: 9fe9 6c79 6fdf 5f3f 3ab3 699f 1ba8 7a3f
00000100: 4cf3 8747 a6c0 823f 1037 3a64 4c63 803f
00000110: 9148 da6b 6d54 813f 723b 6b2b cc6f 823f
00000120: 8151 8783 77f6 683f 5c82 38c0 3a3e 753f
00000130: a2bc 0098 6490 843f 2969 8e84 cf9d 813f
00000140: acda 76b9 0b94 843f 14fc 92e4 abf5 6e3f
00000150: 19a5 cb38 c44b 693f e668 78a1 6314 693f
00000160: 9c2a f7fc 5fd6 783f 3daf 4e95 8f28 7c3f
00000170: cbec 61e9 902e 6b3f 331a 70bb 9200 713f
00000180: 40e6 402c dde1 7e3f 287f c581 2572 483f
00000190: 12f8 4120 8338 fd3e c43a ee0f c422 693f
000001a0: 2c9b c03a 6b84 683f ba8d e4e1 c308 843f
000001b0: 23fd 9a54 6ef2 773f 40f9 6152 6cf8 803f
000001c0: e73b 9432 b1dc 823f b88e f259 fdbe 413f
000001d0: c741 33c4 0587 433f eaf7 7ee6 0bcf 7f3f
000001e0: 1d95 1713 94f7 753f 8a2c 9156 3d6a 743f
000001f0: f1dc d5fe 6e05 753f 6415 fefe b6a6 773f
00000200: 9425 4172 2790 703f ab05 c873 3969 8c3f
00000210: b018 b18e 76dd 8a3f 781d 53ae 7122 753f
00000220: 72fd e335 0899 773f f1e3 a46e 90b9 8a3f
00000230: c4b2 2923 3199 823f fe85 82ff 755c 8f3f
00000240: 0f41 bd3d 3f7d 923f d161 76a1 0318 983f
00000250: 2624 9c29 0fde 993f b271 3e1c 0abf 973f
00000260: cecc e71c 0c3b 903f 7c66 9417 a130 8b3f
00000270: 1c5b f6ce cd8c 7c3f aa21 b29e 23a2 723f
00000280: 71a1 78a8 7b76 7a3f 418f cb2e 77ca 833f
00000290: d527 6c6c ee0a 633f 1065 09f3 7d39 5b3f
000002a0: 7c5d 3c52 4893 763f a7b6 1aa2 0ff8 693f
000002b0: 663c 0762 2193 733f 322e b3c0 0f29 663f
000002c0: dbd2 18bf f7cc 773f 9fb3 c49a f0c6 533f
000002d0: 6c48 e7c9 f630 583f 1eb7 cb81 a5d2 573f
000002e0: c63c 212a b9e5 28bf f39f 0fab 9ef6 6cbf
000002f0: fe58 8298 f611 6dbf 8aed ad9d 4188 86bf
00000300: cefe 4b82 cb3b 9bbf a69a 0d33 c7ef 99bf
00000310: 0f85 5115 9a9f 9cbf 8ec4 8d19 b34e 93bf
00000320: 1d49 04b7 915f 77bf 21a1 219d 8fad 983f
00000330: 93c7 0079 e95e a13f 5902 da98 18b4 a53f
00000340: e983 ff3e b714 a23f 84bc 2467 0f94 943f
00000350: 1182 ed18 c2ec 933f 0ea3 33a9 614d 903f
00000360: 2548 ed5e ecec 6e3f 7d82 f6e5 e53f 253f
00000370: b09c 01fb 27df 743f 768f 2901 1c75 673f
00000380: 806d fdf2 6a0c 843f e213 763b 2fa3 6d3f
00000390: d0cc 4c83 52d3 703f 56f6 f320 c6ed 703f
000003a0: 12df e71f e4af 743f fe7b 1e88 5069 563f
000003b0: c2ec 8ef7 3420 6cbf d256 b1cb d032 8cbf
000003c0: a95b a4f0 a876 9bbf 256a 6e3c c78c a7bf
000003d0: 76b5 cb9b b270 afbf e22b d47d 85df b3bf
000003e0: c2ec d9ea 49fc b8bf b3da 4fa3 9309 b9bf
000003f0: 33f8 6552 be11 b6bf 674a 21b2 5e61 adbf
00000400: 917e 9fde 7fd4 99bf e629 1799 2736 64bf
00000410: 3da7 c95c 112e 863f e73d 7951 88e7 7d3f
00000420: 27c2 e0e8 e042 8a3f 08a6 a549 776b 933f
00000430: 7406 541e f399 913f 9b1c 0248 130b 963f
00000440: 2256 692a a85b 833f 44e5 086f 03b8 823f
00000450: a5dc 893f e44f 713f d350 dd4b 264c 7c3f
00000460: 33b0 58b2 9a59 7f3f 2949 757b 804f 833f
00000470: 9588 9187 256a 573f 0a26 c579 ffde 6f3f
00000480: 164f c188 1545 70bf 5868 0e9b 9a98 7fbf
00000490: 48e4 65d3 2541 94bf a375 06c3 7ff0 9cbf
000004a0: b0d8 df5e 1e00 9dbf 90d8 b7ca 9339 a4bf
000004b0: ed3e 04b1 5980 a4bf 0773 0208 bcb3 a6bf
000004c0: 7031 e113 e9ce a6bf 49f4 3e9e d2dd a7bf
000004d0: f5fa 89a2 3e14 96bf 4df4 8caf 5cd7 923f
000004e0: 7127 e348 19d3 ac3f 6e93 0aa2 a448 b33f
000004f0: 51e9 9eee 2f51 ab3f ca32 84c1 71ac a13f
00000500: 0a7b a3c2 ca67 903f 29c2 1732 dbe0 9e3f
00000510: ede6 0e57 3ce0 a53f 65dd 13be fce8 a53f
00000520: d68b d79a b3a3 9b3f 8856 0f63 267f 763f
00000530: eb2e 29d5 85df 283f dd5d 9ac6 a6ed 453f
00000540: fa81 e712 af5b 7b3f 4716 68fb 3398 733f
00000550: 158f d9df 4d9c 7e3f b01c 3616 ffeb 6c3f
00000560: 7c68 978c 03e1 76bf 16ba 4f15 2c67 91bf
00000570: 1032 a07c 9ce0 98bf 14f1 a7a5 19b4 99bf
00000580: b8c3 aa09 9e6f 8abf 3056 eba4 b61f 633f
00000590: c866 8568 e34e a03f 2541 daa9 2d6a a23f
000005a0: 0316 6f01 f040 9c3f 108c 5d21 3b02 7e3f
000005b0: 4db3 cb81 ed52 693f 0291 be8e 4573 a43f
000005c0: e1f0 920d 7d0b b03f 114c 3440 ed39 b33f
000005d0: 3240 4da9 fcbc ae3f 42d5 63e8 49f8 a53f
000005e0: 96dd b8b6 c0fe 9b3f b82c 9ef2 e52f a33f
000005f0: 6725 1534 71fa b13f ea12 0a17 dc06 b23f
00000600: 4c99 492b 7355 a53f cc8c 72ac d289 8d3f
00000610: a113 2d5a 0a65 7b3f 6035 8d4f b317 753f
00000620: 41f3 29ef 84a2 733f b94a c84b ce95 573f
00000630: 6a29 21b9 fb7b 623f 1acf 6309 b5ab 59bf
00000640: 289a 973d b4ac 96bf 2864 d073 2411 9ebf
00000650: 1da0 a253 4c86 9cbf c4ee 09ce fae3 7dbf
00000660: 766c 0c63 216f 963f 4bdc df54 0faf ac3f
00000670: 601f 332b 8f4f b43f 8b4f 0022 fa3e b13f
00000680: 8792 29b1 a5e3 913f 3e5f 96b7 6ee7 93bf
00000690: 6e84 1313 dd6e 9fbf e29c 3b66 cbd1 84bf
000006a0: ff7e 2d78 a72a 7c3f ff0d 3cc6 be2e 983f
000006b0: 8db8 54b0 1ca8 9f3f 7f88 dea1 fcb7 983f
000006c0: a7f9 8f1c 736c a03f 8575 b8c7 2255 ad3f
000006d0: 159c d739 156b b33f e6e7 c58b a147 b43f
000006e0: b93c a402 18f2 a43f 798b 18d1 20a7 883f
000006f0: 0c73 0f74 52e6 34bf 59ad cae8 9544 803f
00000700: caf1 e830 ff29 723f 4f5d d7a2 bc00 773f
00000710: ec76 ab55 3245 65bf a64e 5900 931e 87bf
00000720: 5311 92ec 9132 a2bf 29d5 5194 73c1 a3bf
00000730: b1d2 148b e023 98bf 52e9 bc26 3d5e 883f
00000740: 87b0 92ac 241f b03f 9335 50ce 58f6 b73f
00000750: 93e5 51c9 176e b83f c7a4 0830 eb96 b23f
00000760: 1c38 759c 5e02 903f 63fa 1d50 1092 a3bf
00000770: 9826 d1e3 3ab7 b9bf 6fc5 c657 0a44 bdbf
00000780: 5e59 6900 2eac b1bf a4ab cbcd 6ef9 a3bf
00000790: 8c46 efd4 9fe0 803f b15a 69fe 34d0 a23f
000007a0: 58b9 0234 1354 a83f 049d 740a 79ed af3f
000007b0: 1417 a5ae 17f5 b23f 27a0 47e3 098f b33f
000007c0: bffe 3121 58dc a83f a286 ee79 51a9 8a3f
000007d0: 029c d73b fa9c 3bbf 0477 597f 7ea9 7a3f
000007e0: ab19 f5d6 4eb0 403f 1007 9c3a 4947 583f
000007f0: 40f3 e12a e927 5b3f 429b 95e7 00fa 8bbf

b1 f8 [10, 1]
0.3761790721441253 0.7207466482321302 0.38087373520290035 0.4476941530964309 0.11151139406844553 0.35690985016723753 0.9613758058019816 0.7770454541063281
0.39360034208462674 0.7510877963607685
00000000: f71c 1363 5113 d83f c779 5b46 5b10 e73f
00000010: 3c84 263b 3c60 d83f b036 8a60 05a7 dc3f
00000020: 7dc4 a7be 028c bc3f baaa 8569 9cd7 d63f
00000030: 9db9 a231 97c3 ee3f 7a8c 9c6d 8edd e83f
00000040: 23aa 3c7d bf30 d93f 286a 3946 e908 e83f

W2 f8 [10, 10]
0.2386361868456375 0.48597058956427147 0.22083174722867863 0.29971797216114393 0.7906246156156871 0.02162130856791604 -1.0753362021013488 -0.33150406055945597
0.03856735132514486 -0.6849907067021177 -0.9543389479324949 0.185050789478863 -0.2159702367074817 -0.11656833326592327 -0.5188854897769887 -0.08134586982710845
0.9188442806978866 0.019109416645425786 -0.6060369875503966 0.5090848732892264 -0.3549749701815761 -0.23195278344055525 0.22474622127687682 -0.6264948049057939
1.125442686151996 -0.13087862377001905 0.053515883403090304 0.1844063622958639 -0.33735190336979626 0.2887136785179881 -0.7011569880476207 0.36900093289342023
0.9489580950674905 0.16237269455082706 0.04454478397460916 0.3373963911369468 0.14734691267696445 0.3229555782784915 0.24675621644369677 -0.06331831451146415
0.9516572530407577 -0.5378788187275964 -0.15604896699541143 -0.6481063544165416 -0.7645618114800165 -0.10720705845702937 0.0888321154742467 -0.2083009158852022
0.4593238700956961 -0.11838547639981599 0.1457021740524195 0.597550036489295 0.13140269691348597 0.7909261029394931 -0.1801407900039442 0.10302123836343959
0.05578800259061396 -0.5898859372545066 0.03546365141028963 -0.33996647139243563 0.44234335716294404 -0.24376349979044837 -0.41911415205152397 -0.6042157683729035
0.5226842834717796 -0.3048678602434297 0.6151682239065585 -0.9036447485827507 0.0888038738783904 -0.4535253550350999 -0.2352536266317246 0.2485412241726812
-0.3633685603352166 0.1745479220928677 -0.5213681314982488 -0.25191547251044477 -0.6240396052072639 1.2840208901186234 -0.06208180675785738 0.11645605763192259
0.3021836360626978 -0.15531395598225498 -0.08429216516369246 0.3864091570382264 0.08967727413422857 0.3589231496675427 0.19641848824896596 -0.23022091665435837
-0.33674253126676235 0.48489440479474116 0.214631321061679 -0.6715768938930474 -0.23755728644678184 0.24060952883133033 -0.5449345126087596 0.10589687445007775
-0.3333616563006425 0.49703408045095226 0.5238569536723334 0.2912018678935944
00000000: c973 126d a18b ce3f c5c4 3f63 241a df3f
00000010: e502 22f6 3644 cc3f c227 1d4a 942e d33f
00000020: 1c6c 6ffe cb4c e93f 4ca0 c874 e523 963f
00000030: a7ae c3bb 9334 f1bf 3105 a6ce 5c37 d5bf
00000040: ad09 4591 19bf a33f 4c2f 6ba1 71eb e5bf
00000050: 5e69 55d5 f189 eebf bc91 7488 beaf c73f
00000060: a3b4 c8a7 e9a4 cbbf bd59 201b 6cd7 bdbf
00000070: 67c1 1ebe b59a e0bf 6875 923a 15d3 b4bf
00000080: a3d9 f61e 2c67 ed3f c8a5 263e 6b91 933f
00000090: 0040 36ae a764 e3bf 084c 355c 6c4a e03f
000000a0: 3c05 f5ef e8b7 d6bf 10f3 8bf9 a0b0 cdbf
000000b0: 6c52 24f3 7bc4 cc3f aae5 45d5 3e0c e4bf
000000c0: 33b9 a830 d001 f23f 693a 6b78 a1c0 c0bf
000000d0: 0dce 1012 6f66 ab3f 8b16 9eaf a09a c73f
000000e0: 38dd 0d70 2c97 d5bf a220 c9ef 487a d23f
000000f0: 38d8 a0c7 e06f e6bf 7320 be16 b69d d73f
00000100: ccdb f25d dd5d ee3f 41fa 6de2 a0c8 c43f
00000110: a2b4 c1ec 92ce a63f df2e 6e08 e797 d53f
00000120: d19b 8e7d 43dc c23f b514 b1df 4dab d43f
00000130: 92ed da2b b595 cf3f 5d88 100a a135 b0bf
00000140: c4f5 59e9 f973 ee3f 2bad f4a3 4d36 e1bf
00000150: aef1 e89c 69f9 c3bf 0790 9189 49bd e4bf
00000160: 5378 0255 4a77 e8bf 472a f9f9 eb71 bbbf
00000170: e5df cb96 b3bd b63f cd15 baba 9aa9 cabf
00000180: 9c52 15f2 8f65 dd3f 1f66 75b5 824e bebf
00000190: 5d70 416c 5ea6 c23f 7e3e 0e41 211f e33f
000001a0: 6dc0 ecb6 cdd1 c03f f7b0 3542 444f e93f
000001b0: af0b df78 da0e c7bf 197c 9091 995f ba3f
000001c0: 298e 45bd 3e90 ac3f f71b 1c79 58e0 e2bf
000001d0: 3104 02ae 4a28 a23f 6e7d 17bb 02c2 d5bf
000001e0: 4488 2783 5a4f dc3f 3a7c c771 a433 cfbf
000001f0: 4388 162a c4d2 dabf c473 9c4e bc55 e3bf
00000200: a39f f463 d4b9 e03f ba35 567c f482 d3bf
00000210: 45f2 6645 75af e33f 8bae 4b64 a8ea ecbf
00000220: f8d7 10c6 d9bb b63f 2f15 f235 8f06 ddbf
00000230: 0607 5374 ca1c cebf b0c5 c3e6 32d0 cf3f
00000240: ec32 c234 6e41 d7bf ab9f 7c18 9657 c63f
00000250: 7ac5 3e38 0caf e0bf d67a f212 621f d0bf
00000260: 32c4 f8e7 21f8 e3bf 750b 277d 598b f43f
00000270: b436 67c3 2fc9 afbf 3940 f36e 10d0 bd3f
00000280: 4ea4 9108 fa56 d33f 8930 c7e4 53e1 c3bf
00000290: 1be5 afdc 2b94 b5bf c0a9 1679 edba d83f
000002a0: 1ad7 99ff 16f5 b63f b85c 66cd 98f8 d63f
000002b0: faf5 adb3 3d24 c93f b35b f105 e177 cdbf
000002c0: d2a1 bd8b 308d d5bf cbd5 a68a 8208 df3f
000002d0: b71e 5404 0a79 cb3f 07a3 80d3 8e7d e5bf
000002e0: 4793 1bf4 4668 cebf 4fe0 b704 4bcc ce3f
000002f0: e9b8 c380 1a70 e1bf e6fe 82bc 0e1c bb3f
00000300: 444e e320 cc55 d5bf 8731 2208 68cf df3f
00000310: 68c1 79a8 6fc3 e03f 41c6 c828 0da3 d23f

b2 f8 [10, 1]
0.5636396841512381 0.8846284200713359 0.7760246708718519 -0.2777037834298021 1.3563838282661749 0.8529932314306923 0.62429398501523 0.669997262304879
-0.2852514656388122 0.8287326815279646
00000000: e808 4517 5609 e23f 7631 aa42 e04e ec3f
00000010: a014 c9b0 31d5 e83f 279d f316 e6c5 d1bf
00000020: c09f 7387 bfb3 f53f aa88 1676 b84b eb3f
00000030: 905b 1761 37fa e33f a349 4019 9e70 e53f
00000040: 4a81 035d 8f41 d2bf 6b3f 8966 fa84 ea3f
