nlp_chatbot/model/saved_model/model.pth (torch, 237833 bytes, 4 tensors)

fc1.weight f4 [512, 100]
-0.14473398 0.012096241 -0.011060738 0.13378808 0.179501 0.051377628 -0.07173543 -0.028758768
0.0037851138 0.04879175 -0.021524511 0.090242036 -0.0075670453 0.10502376 0.11855256 0.089610904
0.16904703 -0.04464832 0.16710699 0.1736157 -0.040809084 -0.062657796 0.025230814 -0.1442995
-0.028238026 0.05224093 0.1966097 0.123676226 0.092555225 0.16039252 -0.07467146 -0.121288195
0.03462875 0.09534594 -0.03873133 0.018592905 0.18896411 0.183815 -0.16556825 0.15497369
-0.049676653 -0.102900416 0.20917256 0.15331377 0.1411336 0.102483176 0.097198255 0.1847255
0.06868062 -0.06614677 -0.06728477 -0.010052883 0.06883944 -0.13505304 0.06794225 -0.016436886
0.042566847 -0.12319881 0.039374355 -0.07315908 0.05655666 0.122697785 0.07873887 0.0014830834
0.029608121 -0.0809962 0.14337131 0.027813863 0.1344076 -0.11287842 0.034469623 0.14269872
-0.05255426 -0.06481478 0.113447286 -0.041204695 -0.024275322 0.02902852 -0.0065148515 0.10710996
0.1871718 -0.09945386 0.05644429 0.061809987 -0.09160961 -0.021639472 -0.039177626 0.02275145
-0.010123271 0.00953728 -0.10358623 0.1721925 -0.08981029 -0.02989393 -0.040077522 0.01795297
0.06358712 -0.010559724 -0.12624174 -0.01909302 -0.028410805 -0.02064175 -0.07945288 -0.018338684
0.032537837 0.0044874176 -0.0050796494 -0.05014904 0.023502016 -0.08390896 -0.11315948 0.07675766
-0.05004517 -0.053215105 0.20998651 -0.041629586 0.14049529 -0.16018169 0.12561987 -0.096269384
0.027890343 0.06559096 0.021018658 -0.04788861 -0.0146986 -0.039649617 -0.052118555 -0.05910591
-0.11057924 -0.13490131 -0.031820342 -0.08157107 0.014801862 -0.05938392 0.10202518 -0.03364038
0.16497321 0.18051583 0.054269128 -0.05304025 0.01944217 -0.034984827 0.11677259 0.19309542
0.07343482 0.0375084 -0.0069673597 -0.004535991 -0.0022179931 0.020473018 -0.06270903 0.070378214
-0.042510163 0.002818708 0.06977171 -0.11178661 0.06830599 0.18613614 -0.06731443 -0.029034218
-0.025353216 -0.0754274 0.09141874 -0.07654047 0.02060508 0.032273315 0.01706932 -0.04298858
-0.014754057 0.033611525 -0.07997721 -0.13708411 0.05595743 0.057415936 0.15113641 0.03587918
0.13160825 0.005200052 -0.038806725 0.05944278 0.12176403 0.07901696 0.1349553 0.12541053
0.041924186 0.06146348 -0.027075563 -0.020805389 0.046873897 -0.081009366 -0.07463528 0.18470465
-0.04635429 -0.15957442 0.033780605 -0.03161713 -0.06915633 0.14349398 0.023855519 -0.027810214
-0.04665778 0.14093377 0.083847195 -0.07676586 -0.035827488 0.004283998 0.07374517 -0.094852716
-0.13462143 -0.048037898 -0.09316469 -0.009274774 0.12989873 -0.032936327 0.22412935 -0.024931543
-0.043199327 0.046482127 0.05206243 -0.12457166 0.15155269 0.09175955 0.0868016 -0.16780256
0.048745476 -0.079003036 0.08612562 0.07298326 -0.009895924 -0.10271841 -0.1376639 -0.09413845
-0.05359994 0.05307802 0.05547177 -0.00081463833 0.18969126 -0.08116015 -0.038948935 -0.0016957164
0.006400676 -0.08032364 -0.05369263 -0.05428973 -0.14231277 -0.003947755 0.033049785 0.11036772
0.021934757 0.08742853 -0.08535019 0.16705506 -0.034420602 -0.07895376 -0.024928823 0.13620442
00000000: 2535 14be 502f 463c 1938 35bc beff 083e
00000010: 1ccf 373e 5971 523d 06ea 92bd 8297 ebbc
00000020: ac0f 783b dcd9 473d 2c54 b0bc d1d0 b83d
00000030: faf4 f7bb b216 d73d afcb f23d ec85 b73d
00000040: aa1a 2d3e 28e1 36bd 181e 2b3e 50c8 313e
00000050: 6d27 27bd bb52 80bd dab0 ce3c 40c3 13be
00000060: 6f53 e7bc 96fa 553d 0e54 493e f649 fd3d
00000070: 988d bd3d f03d 243e 5aed 98bd f265 f8bd
00000080: e0d6 0d3d bb44 c33d bea4 1ebd 2650 983c
00000090: cf7f 413e 003a 3c3e b98a 29be 6cb1 1e3e
000000a0: bf79 4bbd 74bd d2bd 5531 563e 49fe 1c3e
000000b0: 5485 103e b3e2 d13d e10f c73d ae28 3d3e
000000c0: 6da8 8c3d f577 87bd 99cc 89bd d9b4 24bc
000000d0: b1fb 8c3d 584b 0abe 4e25 8b3d a6a6 86bc
000000e0: 935a 2e3d a84f fcbd 0147 213d 6ed4 95bd
000000f0: f5a7 673d fa48 fb3d d841 a13d 0564 c23a
00000100: bb8c f23c 56e1 a5bd eecf 123e e6d9 e33c
00000110: 25a2 093e cd2c e7bd 0530 0d3d 9d1f 123e
00000120: 2343 57bd 9dbd 84bd 0d57 e83d 41c6 28bd
00000130: 0add c6bc 38cd ed3c 897a d5bb 775c db3d
00000140: f7a9 3f3e 77ae cbbd 2132 673d 782c 7d3d
00000150: d29d bbbd 4345 b1bc b878 20bd 4061 ba3c
00000160: 13dc 25bc 4042 1c3c 0425 d4bd 3b53 303e
00000170: 75ee b7bd 1de4 f4bc 5428 24bd 1b12 933c
00000180: f739 823d b102 2dbc 8445 01be f768 9cbc
00000190: c7bd e8bc e318 a9bc 31b8 a2bd 023b 96bc
000001a0: 6546 053d 300b 933b 3073 a6bb 1469 4dbd
000001b0: 4d87 c03c 76d8 abbd 28c0 e7bd 1f33 9d3d
000001c0: 2afc 4cbd 15f8 59bd b406 573e c983 2abd
000001d0: ffdd 0f3e ab06 24be 7fa2 003e e228 c5bd
000001e0: 4a7a e43c 8e54 863d 522f ac3c d926 44bd
000001f0: 66d2 70bc a367 22bd 447a 55bd 0a19 72bd
00000200: 5e77 e2bd 9223 0abe 0c56 02bd bc0e a7bd
00000210: 8283 723c 8e3c 73bd 94f2 d03d 7fca 09bd
00000220: bdee 283e 24d9 383e 4e49 5e3d bc40 59bd
00000230: 3045 9f3c 404c 0fbd 7826 ef3d ceba 453e
00000240: ff64 963d 68a2 193d 734e e4bb a6a2 94bb
00000250: c05b 11bb 08b7 a73c 986d 80bd 7422 903d
00000260: 231f 2ebd 13ba 383b 78e4 8e3d 61f0 e4bd
00000270: 03e4 8b3d 799a 3e3e 26dc 89bd 2bd9 edbc
00000280: 8cb1 cfbc ae79 9abd c039 bb3d 40c1 9cbd
00000290: fccb a83c 0631 043d f5d4 8b3c cb14 30bd
000002a0: 00bb 71bc 3dac 093d 17cb a3bd c75f 0cbe
000002b0: 9e33 653d f92c 6b3d 81c3 1a3e 0cf6 123d
000002c0: 50c4 063e 3365 aa3b cdf3 1ebd 467a 733d
000002d0: 6b5f f93d a5d3 a13d b931 0a3e 9e6b 003e
000002e0: b2b8 2b3d 21c1 7b3d 92cd ddbc 1070 aabc
000002f0: d8fe 3f3d 3de8 a5bd 62da 98bd 3723 3d3e
00000300: ffdd 3dbd 7a67 23be 885d 0a3d f780 01bd
00000310: d5a1 8dbd 16f0 123e a66c c33c 3fd2 e3bc
00000320: 3a1c 3fbd f150 103e 14b8 ab3d 6b37 9dbd
00000330: d8bf 12bd c860 8c3b b507 973d 2442 c2bd
00000340: 33da 09be 63c3 44bd 21cd bebd 39f5 17bc
00000350: 2c04 053e 3ee8 06bd 2a82 653e 3c3d ccbc
00000360: c7f1 30bd 0b64 3e3d 6a3f 553d 6d1f ffbd
00000370: a130 1b3e 6eec bb3d 0ac5 b13d 6fd4 2bbe
00000380: 56a9 473d 58cc a1bd a162 b03d 3f78 953d
00000390: 8322 22bc 085e d2bd c4f7 0cbe a9cb c0bd
000003a0: 9c8b 5bbd 5768 593d 5e36 633d 748d 55ba
000003b0: 6d3e 423e 4b37 a6bd eb88 1fbd cd42 deba
000003c0: c3bc d13b b880 a4bd ceec 5bbd e85e 5ebd
000003d0: 70ba 11be 2b5c 81bb 365f 073d 7908 e23d
000003e0: 85b0 b33c bb0d b33d 15cc aebd 7b10 2b3e
000003f0: 9efc 0cbd 82b2 a1bd 8837 ccbc 2c79 0b3e

fc1.bias f4 [512]
0.10214817 0.09588052 0.09231304 0.043484148 0.10873127 0.13260216 0.009485927 0.09803039
0.018371532 0.051168628 0.0042371107 0.08460514 0.12441951 0.17776024 0.07681522 0.020572856
0.07033422 0.11002265 0.13432539 0.1255123 0.0023096253 0.17897332 0.12217956 0.11312133
0.1300717 0.046238977 0.14767687 0.022846868 0.17710981 0.091229275 0.16290286 0.032218564
0.052387875 0.029003713 0.021032872 0.15369935 0.041318502 0.07089514 0.14063495 0.04332069
0.084053904 0.036949653 0.07582888 0.044781357 0.020326562 0.043728277 0.111787654 0.115727834
0.17622508 0.11029289 0.16549392 0.111051604 0.07329642 -0.014617557 0.18292738 0.03762142
0.06788452 0.07391062 -0.0073558684 0.0821941 -0.022490663 0.05275597 0.10890112 0.008631963
0.14592643 0.049837276 0.004817422 0.06417817 0.07705195 -0.0003758494 0.03097682 0.11795293
0.1729972 0.035315864 0.04825772 0.09926123 0.031447645 0.18104565 0.06975683 0.023755142
0.08375156 0.13016182 0.15928757 0.12743708 0.09563183 0.16798195 0.12589435 0.069406174
0.044613253 0.025726387 0.12813617 0.031877704 0.011131319 0.12829745 0.09950833 0.054110855
0.06845948 0.058405545 0.053082876 0.034904614 0.105233446 0.111106284 0.02754735 0.10676122
0.17999719 0.053177614 0.024169203 0.09901475 0.10749526 0.016930414 0.12546256 0.13721378
0.13929863 0.16543321 0.09213108 0.10139032 0.085891336 0.10996153 0.0513013 0.095579594
0.07343241 0.1434037 0.16614586 0.15246356 -0.00622436 0.14217019 0.0048955157 0.102343954
0.06790618 0.096730664 0.0035792263 0.18519813 0.14280535 -0.014498744 0.10948441 0.1093555
0.061840266 0.12739642 0.13815434 0.08792921 0.11987759 0.06649855 0.042142905 0.032340437
0.12509511 0.110004514 0.118375614 0.07777516 0.025890972 0.13347682 0.18579356 0.046628706
0.008014127 0.08774311 0.11285271 0.11518186 0.10090439 0.18304674 0.11071483 0.109187745
0.09112878 0.12991133 0.097503215 0.03681389 0.10736727 0.17518832 0.10444956 0.030332083
0.0035196948 0.18279205 0.12993743 0.12570655 0.07801762 0.099992275 0.05699654 0.14075206
0.122168705 0.015844002 0.09766922 0.17839149 -0.0014835072 0.096862145 0.070180595 0.15400988
0.008686608 0.057433166 0.09517906 0.033037692 0.009053332 0.017515881 0.17415167 0.096747614
0.09871342 0.06955929 0.10701553 0.09545982 0.12280288 0.13223784 0.088281445 0.16904216
0.110405855 0.07019312 0.045315117 -0.017134625 0.016101634 0.15658642 0.096736625 0.037665717
0.18854636 0.09493953 0.041531492 0.12829351 0.0503772 0.008816991 0.019535754 0.14566198
0.055587538 0.1712783 0.044043 0.09645814 0.060152095 0.11186143 0.0023821197 0.19132477
-0.008751641 0.02293625 0.08954069 0.11725879 0.075439736 0.17923696 0.08955468 0.10563873
0.023118833 -0.016909938 0.0054413583 -0.011535963 0.08489291 0.0075681573 0.00050724566 -0.004546885
0.14495352 0.03072077 0.09290029 0.053974435 0.12310951 0.0842931 0.09854982 0.19290543
0.06881473 0.07788358 0.047804065 0.06379194 0.112931706 0.18140624 -0.017718116 0.15082864
00000000: 0f33 d13d 025d c43d 9e0e bd3d 6f1c 323d
00000010: 80ae de3d dcc8 073e dd6a 1b3c 28c4 c83d
00000020: e57f 963c 3296 513d 76d7 8a3b 7645 ad3d
00000030: a8cf fe3d c806 363e 4c51 9d3d 6888 a83c
00000040: 630b 903d 8e53 e13d 988c 093e 4c86 003e
00000050: 155d 173b c844 373e 4739 fa3d 28ac e73d
00000060: 8431 053e 1565 3d3d 9b38 173e 5b29 bb3c
00000070: 465c 353e 6ad6 ba3d 02d0 263e 9df7 033d
00000080: ab94 563d 3299 ed3c 214d ac3c 5d63 1d3e
00000090: 973d 293d 7931 913d 9c02 103e 0971 313d
000000a0: 7424 ac3d 8558 173d 2c4c 9b3d a86c 373d
000000b0: e483 a63c 6c1c 333d edf0 e43d b702 ed3d
000000c0: 5974 343e 3de1 e13d 3d77 293e 066f e33d
000000d0: 6f1c 963d 7a7e 6fbc 5151 3b3e eb18 1a3d
000000e0: 0a07 8b3d 735e 973d 7f09 f1bb 6155 a83d
000000f0: 573e b8bc a516 583d 8d07 df3d 146d 0d3c
00000100: bd6d 153e 2c22 4c3d 77db 9d3b d86f 833d
00000110: 6acd 9d3d a70d c5b9 1ac3 fd3c 4e91 f13d
00000120: 2e26 313e 5ea7 103d e3a9 453d 7949 cb3d
00000130: 3fcf 003d 0864 393e abdc 8e3d 259a c23c
00000140: f085 ab3d 2449 053e 481c 233e de7e 023e
00000150: 9fda c33d 7603 2c3e 73ea 003e d324 8e3d
00000160: 63bc 363d 25c0 d23c 2136 033e 3292 023d
00000170: 2360 363c 6860 033e 06cb cb3d 58a3 5d3d
00000180: 7c34 8c3d a73a 6f3d 6e6d 593d 24f8 0e3d
00000190: a284 d73d b18b e33d fbaa e13c a0a5 da3d
000001a0: 2f51 383e c5d0 593d 7efe c53c 3fc8 ca3d
000001b0: 7a26 dc3d a7b1 8a3c 4279 003e c581 0c3e
000001c0: 4da4 0e3e 5367 293e 38af bc3d baa5 cf3d
000001d0: cce7 af3d 8333 e13d 5021 523d 3cbf c33d
000001e0: bb63 963d 6bd8 123e 2422 2a3e 681f 1c3e
000001f0: b7f5 cbbb 1095 113e 906a a03b b599 d13d
00000200: 6512 8b3d ba1a c63d 7491 6a3b 94a4 3d3e
00000210: 913b 123e 248c 6dbc 5d39 e03d c7f5 df3d
00000220: 384c 7d3d 3574 023e 5578 0d3e 3b14 b43d
00000230: 6282 f53d 6430 883d 0a9e 2c3d 6877 043d
00000240: ef18 003e 0c4a e13d ea6e f23d 9548 9f3d
00000250: 4e19 d43c 26ae 083e ab40 3e3e befd 3e3d
00000260: af4d 033c a9b2 b33d 521f e73d 78e4 eb3d
00000270: f6a6 ce3d 9b70 3b3e 75be e23d d39d df3d
00000280: baa1 ba3d 7a07 053e c4af c73d 29ca 163d
00000290: 5fe3 db3d 9164 333e a7e9 d53d fd7a f83c
000002a0: aeaa 663b d72d 3b3e 510e 053e 38b9 003e
000002b0: b4c7 9f3d c0c8 cc3d 3475 693d 4f21 103e
000002c0: 9633 fa3d 48cb 813c cd06 c83d 42ac 363e
000002d0: 3e72 c2ba a95f c63d d8ba 8f3d c4b4 1d3e
000002e0: 4652 0e3c 0a3f 6b3d 3ded c23d 8852 073d
000002f0: 6d54 143c 777d 8f3c d154 323e 9d23 c63d
00000300: 432a ca3d 1a75 8e3d f52a db3d 7080 c33d
00000310: 1480 fb3d 5b69 073e e7cc b43d 6319 2d3e
00000320: 771c e23d 69c1 8f3d 589c 393d ea5d 8cbc
00000330: 93e7 833c 3158 203e da1d c63d 5e47 1a3d
00000340: 4c12 413e a86f c23d ed1c 2a3d 605f 033e
00000350: 5358 4e3d 2475 103c 7209 a03c 6a28 153e
00000360: c2af 633d 9463 2f3e 6f66 343d d88b c53d
00000370: 0b62 763d 9b17 e53d 561d 1c3b a4ea 433e
00000380: 0b63 0fbc cde4 bb3c 1c61 b73d 6025 f03d
00000390: 2680 9a3d e589 373e 7268 b73d 1e59 d83d
000003a0: b563 bd3c b686 8abc 6c4d b23b 5601 3dbc
000003b0: 56dc ad3d 4efe f73b aef8 043a 09fe 94bb
000003c0: b26e 143e 20aa fb3c 8242 be3d 4c14 5d3d
000003d0: d720 fc3d dca1 ac3d 7dd4 c93d 0089 453e
000003e0: bdee 8c3d 6d81 9f3d 32ce 433d 59a5 823d
000003f0: bd48 e73d 8fc2 393e 9525 91bc d372 1a3e

fc2.weight f4 [14, 512]
-0.046211697 -0.06516877 0.01816918 0.064637996 -0.10263477 0.035035543 -0.13146248 0.100573905
-0.10325768 -0.004311512 -0.12991709 0.037447896 -0.12561908 -0.029022096 -0.038545262 -0.13168782
-0.051052738 0.08668805 -0.11045332 0.13373126 0.029260026 0.083229 -0.094283864 -0.12474926
-0.065106265 -0.077410296 0.08893001 -0.12013523 0.10179905 -0.06454424 0.007879936 -0.106675856
-0.0989606 -0.0907777 -0.121054515 -0.06563158 0.06735544 -0.054146584 0.08780005 -0.13705696
-0.12072394 0.097465724 0.114018336 0.074443296 -0.073838905 -0.114800096 0.07776352 -0.121851526
-0.021841343 -0.09154051 -0.113226265 -0.02039725 0.11429517 0.049531598 -0.11596574 -0.11214544
-0.072874054 -0.0099849105 -0.041275118 0.045939133 0.12375383 -0.10891205 0.08294335 0.105874546
0.08382654 -0.10581893 -0.050037447 -0.0027061538 0.048399176 0.020418437 -0.15371035 -0.0615141
-0.10010344 -0.08557292 0.10443048 -0.11013407 -0.12868597 -0.055685148 -0.11049333 -0.11616785
0.041620046 0.12243577 0.039160267 -0.07584755 0.072217256 0.015225647 -0.054160964 -0.07900582
-0.10909508 0.006173933 -0.13548078 0.077652395 0.05639923 -0.10738244 -0.11495738 0.05143473
-0.026808145 0.113206446 -0.033038802 0.09228307 -0.027943002 0.08857852 -0.09452801 -0.124649756
0.05164193 -0.09388631 0.13892628 0.045373615 0.0311742 -0.11159239 -0.08197856 -0.100181475
0.054732837 0.09859573 -0.013932534 -0.10438687 -0.010701218 0.13447829 -0.09973845 -0.1255296
-0.14524055 -0.11207662 -0.039721575 0.038003862 -0.13503961 0.018602762 -0.15232027 0.029948037
0.10892901 0.12713331 -0.13278094 -0.14736028 -0.111533724 0.05145571 0.062536046 -0.0966
-0.09193773 -0.13013957 -0.013443636 0.0677677 -0.10636168 -0.101183586 -0.12793642 0.051399995
0.04014513 -0.093996644 -0.013144745 0.088928096 -0.14768629 0.051184904 -0.10703767 -0.06831394
0.0784156 0.027376384 0.11058963 -0.13319099 -0.06798785 -0.050150245 0.0853309 0.06958938
-0.12422585 -0.12650806 -0.06931304 -0.075973734 -0.097056165 -0.10374832 -0.10676881 0.09690507
-0.12385542 0.09606352 -0.07794796 0.054038104 -0.029446533 0.09468307 -0.10887458 -0.07271958
-0.06936182 0.06512117 0.034938995 -0.035080742 -0.12088105 -0.13109717 -0.13646361 -0.08845388
-0.08304909 -0.09090132 0.06774324 -0.044852346 -0.10232478 0.09077639 0.058284454 0.0074083316
-0.11426477 -0.14893204 -0.14336437 -0.14411321 0.07649271 0.068782 -0.115975715 -0.09084939
0.05213738 -0.08612307 0.08203962 0.094800115 0.012601064 -0.11094438 0.049011685 -0.12919612
0.04513181 -0.08871439 -0.106143765 -0.05671882 0.040920798 0.03247901 0.09296161 0.096628696
-0.123596884 0.094093435 -0.044742204 -0.11834704 0.038124964 0.0051434645 -0.104303196 0.05846875
-0.1159107 -0.06985747 -0.113129266 -0.10333576 -0.079809494 -0.09791566 -0.14040868 -0.06067115
-0.055164807 0.009549133 0.08509282 0.03781654 -0.15277615 -0.15714912 0.100780904 -0.12528346
-0.09160784 -0.012565458 0.11119096 0.09087173 0.11712488 -0.037264172 -0.10119038 -0.09885318
0.061956562 0.05451046 -0.12184241 0.11185457 -0.09417463 -0.08534935 -0.09705007 0.10541263
00000000: 7a48 3dbd 3477 85bd 88d7 943c ed60 843d
00000010: 2e32 d2bd 6e81 0f3d 1a9e 06be b1f9 cd3d
00000020: c378 d3bd 9647 8dbb fc08 05be f762 193d
00000030: 4aa2 00be bfbf edbc a3e1 1dbd 2cd9 06be
00000040: ad1c 51bd 8189 b13d 5a35 e2bd d9f0 083e
00000050: b9b2 ef3c f773 aa3d e617 c1bd 8a7c ffbd
00000060: 6f56 85bd 4a89 9ebd f020 b63d 7609 f6bd
00000070: 057c d03d c52f 84bd d91a 013c df78 dabd
00000080: dbab cabd a9e9 b9bd 6eeb f7bd da69 86bd
00000090: a6f1 893d cfc8 5dbd 83d0 b33d a958 0cbe
000000a0: 1d3e f7bd 1c9c c73d 7282 e93d ba75 983d
000000b0: da38 97bd 501c ebbd 7b42 9f3d 4b8d f9bd
000000c0: 9eec b2bc 9779 bbbd 2ce3 e7bd 2218 a7bc
000000d0: 9613 ea3d a5e1 4a3d 727f edbd 82ac e5bd
000000e0: fe3e 95bd c097 23bc 1910 29bd ac2a 3c3d
000000f0: a672 fd3d 480d dfbd 34de a93d c1d4 d83d
00000100: 40ad ab3d 98b7 d8bd 11f4 4cbd ba59 31bb
00000110: 373e 463d 9144 a73c 3f66 1dbe 35f6 7bbd
00000120: 0803 cdbd db40 afbd a6df d53d f98d e1bd
00000130: 41c6 03be 1c16 64bd 544a e2bd 69e9 edbd
00000140: c879 2a3d 9bbf fa3d 8466 203d f655 9bbd
00000150: a4e6 933d fe74 793c e3d7 5dbd cecd a1bd
00000160: 3e6d dfbd b44e ca3b 79bb 0abe 3808 9f3d
00000170: e102 673d 53eb dbbd c66e ebbd 39ad 523d
00000180: c19c dbbc c8d8 e73d b253 07bd e8fe bc3d
00000190: b9e8 e4bc a868 b53d e797 c1bd 5f48 ffbd
000001a0: 7d86 533d 7747 c0bd b142 0e3e afd9 393d
000001b0: 0961 ff3c 8d8a e4bd 60e4 a7bd f22b cdbd
000001c0: 8a2f 603d 8fec c93d 4845 64bc c9c8 d5bd
000001d0: 2954 2fbc adb4 093e ac43 ccbd d58a 00be
000001e0: f0b9 14be 6d88 e5bd 17b3 22bd f0a9 1b3d
000001f0: d347 0abe d264 983c d8f9 1bbe 9655 f53c
00000200: 2c16 df3d 3c2f 023e baf7 07be 9de5 16be
00000210: cb6b e4bd 39c3 523d e612 803d 39d6 c5bd
00000220: d949 bcbd 4f43 05be b242 5cbc cbc9 8a3d
00000230: 27d4 d9bd 5739 cfbd c401 03be cd88 523d
00000240: 386f 243d 5081 c0bd 0e5d 57bc ef1f b63d
00000250: 133b 17be 43a7 513d 9136 dbbd 2ee8 8bbd
00000260: 5c98 a03d 7044 e03c d17c e23d 3863 08be
00000270: 373d 8bbd 586a 4dbd f8c1 ae3d e084 8e3d
00000280: 1f6a febd 548b 01be fff3 8dbd 1e98 9bbd
00000290: 62c5 c6bd 007a d4bd 9ba9 dabd 2a76 c63d
000002a0: e9a7 fdbd f3bc c43d 2ea3 9fbd 0f57 5d3d
000002b0: db39 f1bc 33e9 c13d a3f9 debd 01ee 94bd
000002c0: 920d 8ebd 3f5e 853d 311c 0f3d d3b0 0fbd
000002d0: 7c90 f7bd 563e 06be 1ebd 0bbe 4f27 b5bd
000002e0: a415 aabd 792a babd f8bc 8a3d 18b7 37bd
000002f0: a78f d1bd f9e8 b93d aebb 6e3d 97c1 f23b
00000300: a603 eabd a481 18be 1cce 12be 6a92 13be
00000310: 36a8 9c3d 94dd 8c3d ad84 edbd 3f0f babd
00000320: 018e 553d 4b61 b0bd 6304 a83d 9026 c23d
00000330: b174 4e3c cf36 e3bd 7ac0 483d fd4b 04be
00000340: 22dc 383d e4af b5bd e761 d9bd fe51 68bd
00000350: 919c 273d b608 053d a862 be3d 44e5 c53d
00000360: 5d20 fdbd 0fb4 c03d 9a43 37bd ef5f f2bd
00000370: ec28 1c3d 828a a83b ea9c d5bd ee7c 6f3d
00000380: 9762 edbd 6f11 8fbd 51b0 e7bd b3a1 d3bd
00000390: 2973 a3bd 0188 c8bd 4bc7 0fbe 5082 78bd
000003a0: 7ef4 61bd f773 1c3c 2545 ae3d 84e5 1a3d
000003b0: 5a71 1cbe b3eb 20be 3866 ce3d 4f4a 00be
000003c0: e49c bbbd 5adf 4dbc 16b8 e33d f51a ba3d
000003d0: 2bdf ef3d 51a2 18bd e73c cfbd 8973 cabd
000003e0: 2ac6 7d3d 5c46 5f3d 8388 f9bd 0214 e53d
000003f0: a1de c0bd a4cb aebd 30c2 c6bd 94e2 d73d

fc2.bias f4 [14]
-0.020679938 -0.050181966 -0.014498627 -0.057630174 0.11035296 0.060873557 0.0019169821 -0.055743944
-0.034179214 -0.0070370464 0.0073798234 -0.03977122 0.020113684 -0.009062382
00000000: f968 a9bc 9b8b 4dbd a68b 6dbc 9e0d 6cbd
00000010: bc00 e23d 8d56 793d 3f43 fb3a c353 64bd
00000020: 81ff 0bbd 0697 e6bb 72d2 f13b 26e7 22bd
00000030: 74c5 a43c 637a 14bc
